{"format": "graph-model", "generatedBy": "2.19.0", "convertedBy": "TensorFlow.js Converter v4.22.0", "signature": {"outputs": {"Identity:0": {"name": "Identity:0"}}}, "modelTopology": {"node": [{"name": "ConstantFolding/model_57/tf.math.divide_1/truediv_recip", "op": "Const", "attr": {"value": {"tensor": {"dtype": "DT_FLOAT", "tensorShape": {}}}, "dtype": {"type": "DT_FLOAT"}}}, {"name": "model_57/tf.strided_slice_49/ones_like/tensor", "op": "Const", "attr": {"value": {"tensor": {"dtype": "DT_INT64", "tensorShape": {"dim": [{"size": "3"}]}}}, "dtype": {"type": "DT_INT64"}}}, {"name": "model_57/tf.strided_slice_49/StridedSlice/end", "op": "Const", "attr": {"value": {"tensor": {"dtype": "DT_INT64", "tensorShape": {"dim": [{"size": "3"}]}}}, "dtype": {"type": "DT_INT64"}}}, {"name": "model_57/tf.strided_slice_49/ones_like", "op": "Const", "attr": {"value": {"tensor": {"dtype": "DT_INT64", "tensorShape": {"dim": [{"size": "3"}]}}}, "dtype": {"type": "DT_INT64"}}}, {"name": "model_57/tf.math.add_267/Add/y", "op": "Const", "attr": {"value": {"tensor": {"dtype": "DT_FLOAT", "tensorShape": {"dim": [{"size": "1"}, {"size": "2"}, {"size": "8400"}]}}}, "dtype": {"type": "DT_FLOAT"}}}, {"name": "model_57/76301", "op": "Const", "attr": {"value": {"tensor": {"dtype": "DT_FLOAT", "tensorShape": {"dim": [{"size": "1"}, {"size": "2"}, {"size": "8400"}]}}}, "dtype": {"type": "DT_FLOAT"}}}, {"name": "model_57/tf.strided_slice_46/StridedSlice/begin", "op": "Const", "attr": {"value": {"tensor": {"dtype": "DT_INT32", "tensorShape": {"dim": [{"size": "3"}]}}}, "dtype": {"type": "DT_INT32"}}}, {"name": "model_57/tf.strided_slice_46/StridedSlice/end", "op": "Const", "attr": {"value": {"tensor": {"dtype": "DT_INT32", "tensorShape": {"dim": [{"size": "3"}]}}}, "dtype": {"type": "DT_INT32"}}}, {"name": "model_57/tf.strided_slice_46/ones_like", "op": "Const", "attr": {"value": {"tensor": {"dtype": "DT_INT32", "tensorShape": {"dim": [{"size": "3"}]}}}, "dtype": {"type": "DT_INT32"}}}, {"name": "model_57/tf.reshape_44/Reshape/shape", "op": "Const", "attr": {"value": {"tensor": {"dtype": "DT_INT32", "tensorShape": {"dim": [{"size": "4"}]}}}, "dtype": {"type": "DT_INT32"}}}, {"name": "model_57/tf.compat.v1.transpose_295/transpose/perm", "op": "Const", "attr": {"value": {"tensor": {"dtype": "DT_INT32", "tensorShape": {"dim": [{"size": "4"}]}}}, "dtype": {"type": "DT_INT32"}}}, {"name": "model_57/tf.compat.v1.transpose_296/transpose/perm", "op": "Const", "attr": {"value": {"tensor": {"dtype": "DT_INT32", "tensorShape": {"dim": [{"size": "4"}]}}}, "dtype": {"type": "DT_INT32"}}}, {"name": "model_57/tf.nn.convolution_698/convolution/filter", "op": "Const", "attr": {"value": {"tensor": {"dtype": "DT_FLOAT", "tensorShape": {"dim": [{"size": "1"}, {"size": "1"}, {"size": "16"}, {"size": "1"}]}}}, "dtype": {"type": "DT_FLOAT"}}}, {"name": "model_57/tf.compat.v1.transpose_301/transpose/perm", "op": "Const", "attr": {"value": {"tensor": {"dtype": "DT_INT32", "tensorShape": {"dim": [{"size": "4"}]}}}, "dtype": {"type": "DT_INT32"}}}, {"name": "model_57/tf.reshape_47/Reshape/shape", "op": "Const", "attr": {"value": {"tensor": {"dtype": "DT_INT32", "tensorShape": {"dim": [{"size": "3"}]}}}, "dtype": {"type": "DT_INT32"}}}, {"name": "model_57/tf.strided_slice_48/ones_like/tensor", "op": "Const", "attr": {"value": {"tensor": {"dtype": "DT_INT64", "tensorShape": {"dim": [{"size": "3"}]}}}, "dtype": {"type": "DT_INT64"}}}, {"name": "model_57/tf.strided_slice_48/StridedSlice/end", "op": "Const", "attr": {"value": {"tensor": {"dtype": "DT_INT64", "tensorShape": {"dim": [{"size": "3"}]}}}, "dtype": {"type": "DT_INT64"}}}, {"name": "model_57/tf.strided_slice_48/ones_like", "op": "Const", "attr": {"value": {"tensor": {"dtype": "DT_INT64", "tensorShape": {"dim": [{"size": "3"}]}}}, "dtype": {"type": "DT_INT64"}}}, {"name": "model_57/tf.concat_61/concat/axis", "op": "Const", "attr": {"value": {"tensor": {"dtype": "DT_INT32", "tensorShape": {}}}, "dtype": {"type": "DT_INT32"}}}, {"name": "model_57/tf.math.multiply_813/Mul/y", "op": "Const", "attr": {"value": {"tensor": {"dtype": "DT_FLOAT", "tensorShape": {"dim": [{"size": "1"}, {"size": "1"}, {"size": "8400"}]}}}, "dtype": {"type": "DT_FLOAT"}}}, {"name": "model_57/tf.nn.convolution_661/convolution/filter", "op": "Const", "attr": {"value": {"tensor": {"dtype": "DT_FLOAT", "tensorShape": {"dim": [{"size": "3"}, {"size": "3"}, {"size": "256"}, {"size": "64"}]}}}, "dtype": {"type": "DT_FLOAT"}}}, {"name": "model_57/tf.math.add_216/Add/y", "op": "Const", "attr": {"value": {"tensor": {"dtype": "DT_FLOAT", "tensorShape": {"dim": [{"size": "64"}]}}}, "dtype": {"type": "DT_FLOAT"}}}, {"name": "model_57/tf.nn.convolution_662/convolution/filter", "op": "Const", "attr": {"value": {"tensor": {"dtype": "DT_FLOAT", "tensorShape": {"dim": [{"size": "3"}, {"size": "3"}, {"size": "64"}, {"size": "64"}]}}}, "dtype": {"type": "DT_FLOAT"}}}, {"name": "model_57/tf.math.add_218/Add/y", "op": "Const", "attr": {"value": {"tensor": {"dtype": "DT_FLOAT", "tensorShape": {"dim": [{"size": "64"}]}}}, "dtype": {"type": "DT_FLOAT"}}}, {"name": "model_57/tf.nn.convolution_665/convolution/filter", "op": "Const", "attr": {"value": {"tensor": {"dtype": "DT_FLOAT", "tensorShape": {"dim": [{"size": "1"}, {"size": "1"}, {"size": "64"}, {"size": "64"}]}}}, "dtype": {"type": "DT_FLOAT"}}}, {"name": "model_57/tf.math.add_221/Add/y", "op": "Const", "attr": {"value": {"tensor": {"dtype": "DT_FLOAT", "tensorShape": {"dim": [{"size": "64"}]}}}, "dtype": {"type": "DT_FLOAT"}}}, {"name": "model_57/tf.compat.v1.nn.depthwise_conv2d_6/depthwise/filter_in", "op": "Const", "attr": {"value": {"tensor": {"dtype": "DT_FLOAT", "tensorShape": {"dim": [{"size": "3"}, {"size": "3"}, {"size": "256"}, {"size": "1"}]}}}, "dtype": {"type": "DT_FLOAT"}}}, {"name": "model_57/tf.math.add_217/Add/y", "op": "Const", "attr": {"value": {"tensor": {"dtype": "DT_FLOAT", "tensorShape": {"dim": [{"size": "256"}]}}}, "dtype": {"type": "DT_FLOAT"}}}, {"name": "model_57/tf.nn.convolution_663/convolution/filter", "op": "Const", "attr": {"value": {"tensor": {"dtype": "DT_FLOAT", "tensorShape": {"dim": [{"size": "1"}, {"size": "1"}, {"size": "256"}, {"size": "256"}]}}}, "dtype": {"type": "DT_FLOAT"}}}, {"name": "model_57/tf.math.add_219/Add/y", "op": "Const", "attr": {"value": {"tensor": {"dtype": "DT_FLOAT", "tensorShape": {"dim": [{"size": "256"}]}}}, "dtype": {"type": "DT_FLOAT"}}}, {"name": "model_57/tf.compat.v1.nn.depthwise_conv2d_7/depthwise/filter_in", "op": "Const", "attr": {"value": {"tensor": {"dtype": "DT_FLOAT", "tensorShape": {"dim": [{"size": "3"}, {"size": "3"}, {"size": "256"}, {"size": "1"}]}}}, "dtype": {"type": "DT_FLOAT"}}}, {"name": "model_57/tf.math.add_222/Add/y", "op": "Const", "attr": {"value": {"tensor": {"dtype": "DT_FLOAT", "tensorShape": {"dim": [{"size": "256"}]}}}, "dtype": {"type": "DT_FLOAT"}}}, {"name": "model_57/tf.nn.convolution_668/convolution/filter", "op": "Const", "attr": {"value": {"tensor": {"dtype": "DT_FLOAT", "tensorShape": {"dim": [{"size": "1"}, {"size": "1"}, {"size": "256"}, {"size": "256"}]}}}, "dtype": {"type": "DT_FLOAT"}}}, {"name": "model_57/tf.math.add_225/Add/y", "op": "Const", "attr": {"value": {"tensor": {"dtype": "DT_FLOAT", "tensorShape": {"dim": [{"size": "256"}]}}}, "dtype": {"type": "DT_FLOAT"}}}, {"name": "model_57/tf.nn.convolution_670/convolution/filter", "op": "Const", "attr": {"value": {"tensor": {"dtype": "DT_FLOAT", "tensorShape": {"dim": [{"size": "1"}, {"size": "1"}, {"size": "256"}, {"size": "80"}]}}}, "dtype": {"type": "DT_FLOAT"}}}, {"name": "model_57/tf.math.add_227/Add/y", "op": "Const", "attr": {"value": {"tensor": {"dtype": "DT_FLOAT", "tensorShape": {"dim": [{"size": "80"}]}}}, "dtype": {"type": "DT_FLOAT"}}}, {"name": "model_57/tf.concat_49/concat/axis", "op": "Const", "attr": {"value": {"tensor": {"dtype": "DT_INT32", "tensorShape": {}}}, "dtype": {"type": "DT_INT32"}}}, {"name": "model_57/tf.compat.v1.transpose_247/transpose/perm", "op": "Const", "attr": {"value": {"tensor": {"dtype": "DT_INT32", "tensorShape": {"dim": [{"size": "4"}]}}}, "dtype": {"type": "DT_INT32"}}}, {"name": "model_57/tf.reshape_35/Reshape/shape", "op": "Const", "attr": {"value": {"tensor": {"dtype": "DT_INT32", "tensorShape": {"dim": [{"size": "3"}]}}}, "dtype": {"type": "DT_INT32"}}}, {"name": "model_57/tf.nn.convolution_677/convolution/filter", "op": "Const", "attr": {"value": {"tensor": {"dtype": "DT_FLOAT", "tensorShape": {"dim": [{"size": "3"}, {"size": "3"}, {"size": "512"}, {"size": "64"}]}}}, "dtype": {"type": "DT_FLOAT"}}}, {"name": "model_57/tf.math.add_238/Add/y", "op": "Const", "attr": {"value": {"tensor": {"dtype": "DT_FLOAT", "tensorShape": {"dim": [{"size": "64"}]}}}, "dtype": {"type": "DT_FLOAT"}}}, {"name": "model_57/tf.nn.convolution_678/convolution/filter", "op": "Const", "attr": {"value": {"tensor": {"dtype": "DT_FLOAT", "tensorShape": {"dim": [{"size": "3"}, {"size": "3"}, {"size": "64"}, {"size": "64"}]}}}, "dtype": {"type": "DT_FLOAT"}}}, {"name": "model_57/tf.math.add_240/Add/y", "op": "Const", "attr": {"value": {"tensor": {"dtype": "DT_FLOAT", "tensorShape": {"dim": [{"size": "64"}]}}}, "dtype": {"type": "DT_FLOAT"}}}, {"name": "model_57/tf.nn.convolution_681/convolution/filter", "op": "Const", "attr": {"value": {"tensor": {"dtype": "DT_FLOAT", "tensorShape": {"dim": [{"size": "1"}, {"size": "1"}, {"size": "64"}, {"size": "64"}]}}}, "dtype": {"type": "DT_FLOAT"}}}, {"name": "model_57/tf.math.add_243/Add/y", "op": "Const", "attr": {"value": {"tensor": {"dtype": "DT_FLOAT", "tensorShape": {"dim": [{"size": "64"}]}}}, "dtype": {"type": "DT_FLOAT"}}}, {"name": "model_57/tf.compat.v1.nn.depthwise_conv2d_8/depthwise/filter_in", "op": "Const", "attr": {"value": {"tensor": {"dtype": "DT_FLOAT", "tensorShape": {"dim": [{"size": "3"}, {"size": "3"}, {"size": "512"}, {"size": "1"}]}}}, "dtype": {"type": "DT_FLOAT"}}}, {"name": "model_57/tf.math.add_239/Add/y", "op": "Const", "attr": {"value": {"tensor": {"dtype": "DT_FLOAT", "tensorShape": {"dim": [{"size": "512"}]}}}, "dtype": {"type": "DT_FLOAT"}}}, {"name": "model_57/tf.nn.convolution_679/convolution/filter", "op": "Const", "attr": {"value": {"tensor": {"dtype": "DT_FLOAT", "tensorShape": {"dim": [{"size": "1"}, {"size": "1"}, {"size": "512"}, {"size": "256"}]}}}, "dtype": {"type": "DT_FLOAT"}}}, {"name": "model_57/tf.math.add_241/Add/y", "op": "Const", "attr": {"value": {"tensor": {"dtype": "DT_FLOAT", "tensorShape": {"dim": [{"size": "256"}]}}}, "dtype": {"type": "DT_FLOAT"}}}, {"name": "model_57/tf.compat.v1.nn.depthwise_conv2d_9/depthwise/filter_in", "op": "Const", "attr": {"value": {"tensor": {"dtype": "DT_FLOAT", "tensorShape": {"dim": [{"size": "3"}, {"size": "3"}, {"size": "256"}, {"size": "1"}]}}}, "dtype": {"type": "DT_FLOAT"}}}, {"name": "model_57/tf.math.add_244/Add/y", "op": "Const", "attr": {"value": {"tensor": {"dtype": "DT_FLOAT", "tensorShape": {"dim": [{"size": "256"}]}}}, "dtype": {"type": "DT_FLOAT"}}}, {"name": "model_57/tf.nn.convolution_684/convolution/filter", "op": "Const", "attr": {"value": {"tensor": {"dtype": "DT_FLOAT", "tensorShape": {"dim": [{"size": "1"}, {"size": "1"}, {"size": "256"}, {"size": "256"}]}}}, "dtype": {"type": "DT_FLOAT"}}}, {"name": "model_57/tf.math.add_247/Add/y", "op": "Const", "attr": {"value": {"tensor": {"dtype": "DT_FLOAT", "tensorShape": {"dim": [{"size": "256"}]}}}, "dtype": {"type": "DT_FLOAT"}}}, {"name": "model_57/tf.nn.convolution_686/convolution/filter", "op": "Const", "attr": {"value": {"tensor": {"dtype": "DT_FLOAT", "tensorShape": {"dim": [{"size": "1"}, {"size": "1"}, {"size": "256"}, {"size": "80"}]}}}, "dtype": {"type": "DT_FLOAT"}}}, {"name": "model_57/tf.math.add_249/Add/y", "op": "Const", "attr": {"value": {"tensor": {"dtype": "DT_FLOAT", "tensorShape": {"dim": [{"size": "80"}]}}}, "dtype": {"type": "DT_FLOAT"}}}, {"name": "model_57/tf.concat_53/concat/axis", "op": "Const", "attr": {"value": {"tensor": {"dtype": "DT_INT32", "tensorShape": {}}}, "dtype": {"type": "DT_INT32"}}}, {"name": "model_57/tf.compat.v1.transpose_270/transpose/perm", "op": "Const", "attr": {"value": {"tensor": {"dtype": "DT_INT32", "tensorShape": {"dim": [{"size": "4"}]}}}, "dtype": {"type": "DT_INT32"}}}, {"name": "model_57/tf.reshape_38/Reshape/shape", "op": "Const", "attr": {"value": {"tensor": {"dtype": "DT_INT32", "tensorShape": {"dim": [{"size": "3"}]}}}, "dtype": {"type": "DT_INT32"}}}, {"name": "model_57/tf.nn.convolution_692/convolution/filter", "op": "Const", "attr": {"value": {"tensor": {"dtype": "DT_FLOAT", "tensorShape": {"dim": [{"size": "3"}, {"size": "3"}, {"size": "512"}, {"size": "64"}]}}}, "dtype": {"type": "DT_FLOAT"}}}, {"name": "model_57/tf.math.add_259/Add/y", "op": "Const", "attr": {"value": {"tensor": {"dtype": "DT_FLOAT", "tensorShape": {"dim": [{"size": "64"}]}}}, "dtype": {"type": "DT_FLOAT"}}}, {"name": "model_57/tf.nn.convolution_693/convolution/filter", "op": "Const", "attr": {"value": {"tensor": {"dtype": "DT_FLOAT", "tensorShape": {"dim": [{"size": "3"}, {"size": "3"}, {"size": "64"}, {"size": "64"}]}}}, "dtype": {"type": "DT_FLOAT"}}}, {"name": "model_57/tf.math.add_261/Add/y", "op": "Const", "attr": {"value": {"tensor": {"dtype": "DT_FLOAT", "tensorShape": {"dim": [{"size": "64"}]}}}, "dtype": {"type": "DT_FLOAT"}}}, {"name": "model_57/tf.nn.convolution_695/convolution/filter", "op": "Const", "attr": {"value": {"tensor": {"dtype": "DT_FLOAT", "tensorShape": {"dim": [{"size": "1"}, {"size": "1"}, {"size": "64"}, {"size": "64"}]}}}, "dtype": {"type": "DT_FLOAT"}}}, {"name": "model_57/tf.math.add_263/Add/y", "op": "Const", "attr": {"value": {"tensor": {"dtype": "DT_FLOAT", "tensorShape": {"dim": [{"size": "64"}]}}}, "dtype": {"type": "DT_FLOAT"}}}, {"name": "model_57/tf.strided_slice_44/ones_like/tensor", "op": "Const", "attr": {"value": {"tensor": {"dtype": "DT_INT64", "tensorShape": {"dim": [{"size": "4"}]}}}, "dtype": {"type": "DT_INT64"}}}, {"name": "model_57/tf.strided_slice_44/StridedSlice/end", "op": "Const", "attr": {"value": {"tensor": {"dtype": "DT_INT64", "tensorShape": {"dim": [{"size": "4"}]}}}, "dtype": {"type": "DT_INT64"}}}, {"name": "model_57/tf.strided_slice_44/ones_like", "op": "Const", "attr": {"value": {"tensor": {"dtype": "DT_INT64", "tensorShape": {"dim": [{"size": "4"}]}}}, "dtype": {"type": "DT_INT64"}}}, {"name": "model_57/tf.nn.convolution_682/convolution/filter", "op": "Const", "attr": {"value": {"tensor": {"dtype": "DT_FLOAT", "tensorShape": {"dim": [{"size": "1"}, {"size": "1"}, {"size": "256"}, {"size": "128"}]}}}, "dtype": {"type": "DT_FLOAT"}}}, {"name": "model_57/tf.math.add_245/Add/y", "op": "Const", "attr": {"value": {"tensor": {"dtype": "DT_FLOAT", "tensorShape": {"dim": [{"size": "128"}]}}}, "dtype": {"type": "DT_FLOAT"}}}, {"name": "model_57/tf.nn.convolution_685/convolution/filter", "op": "Const", "attr": {"value": {"tensor": {"dtype": "DT_FLOAT", "tensorShape": {"dim": [{"size": "3"}, {"size": "3"}, {"size": "128"}, {"size": "128"}]}}}, "dtype": {"type": "DT_FLOAT"}}}, {"name": "model_57/tf.math.add_248/Add/y", "op": "Const", "attr": {"value": {"tensor": {"dtype": "DT_FLOAT", "tensorShape": {"dim": [{"size": "128"}]}}}, "dtype": {"type": "DT_FLOAT"}}}, {"name": "model_57/tf.nn.convolution_687/convolution/filter", "op": "Const", "attr": {"value": {"tensor": {"dtype": "DT_FLOAT", "tensorShape": {"dim": [{"size": "3"}, {"size": "3"}, {"size": "128"}, {"size": "128"}]}}}, "dtype": {"type": "DT_FLOAT"}}}, {"name": "model_57/tf.math.add_250/Add/y", "op": "Const", "attr": {"value": {"tensor": {"dtype": "DT_FLOAT", "tensorShape": {"dim": [{"size": "128"}]}}}, "dtype": {"type": "DT_FLOAT"}}}, {"name": "model_57/tf.nn.convolution_688/convolution/filter", "op": "Const", "attr": {"value": {"tensor": {"dtype": "DT_FLOAT", "tensorShape": {"dim": [{"size": "3"}, {"size": "3"}, {"size": "128"}, {"size": "128"}]}}}, "dtype": {"type": "DT_FLOAT"}}}, {"name": "model_57/tf.math.add_253/Add/y", "op": "Const", "attr": {"value": {"tensor": {"dtype": "DT_FLOAT", "tensorShape": {"dim": [{"size": "128"}]}}}, "dtype": {"type": "DT_FLOAT"}}}, {"name": "model_57/tf.nn.convolution_689/convolution/filter", "op": "Const", "attr": {"value": {"tensor": {"dtype": "DT_FLOAT", "tensorShape": {"dim": [{"size": "3"}, {"size": "3"}, {"size": "128"}, {"size": "128"}]}}}, "dtype": {"type": "DT_FLOAT"}}}, {"name": "model_57/tf.math.add_254/Add/y", "op": "Const", "attr": {"value": {"tensor": {"dtype": "DT_FLOAT", "tensorShape": {"dim": [{"size": "128"}]}}}, "dtype": {"type": "DT_FLOAT"}}}, {"name": "model_57/tf.strided_slice_42/ones_like/tensor", "op": "Const", "attr": {"value": {"tensor": {"dtype": "DT_INT64", "tensorShape": {"dim": [{"size": "4"}]}}}, "dtype": {"type": "DT_INT64"}}}, {"name": "model_57/tf.strided_slice_42/StridedSlice/end", "op": "Const", "attr": {"value": {"tensor": {"dtype": "DT_INT64", "tensorShape": {"dim": [{"size": "4"}]}}}, "dtype": {"type": "DT_INT64"}}}, {"name": "model_57/tf.strided_slice_42/ones_like", "op": "Const", "attr": {"value": {"tensor": {"dtype": "DT_INT64", "tensorShape": {"dim": [{"size": "4"}]}}}, "dtype": {"type": "DT_INT64"}}}, {"name": "model_57/tf.nn.convolution_666/convolution/filter", "op": "Const", "attr": {"value": {"tensor": {"dtype": "DT_FLOAT", "tensorShape": {"dim": [{"size": "1"}, {"size": "1"}, {"size": "256"}, {"size": "128"}]}}}, "dtype": {"type": "DT_FLOAT"}}}, {"name": "model_57/tf.math.add_223/Add/y", "op": "Const", "attr": {"value": {"tensor": {"dtype": "DT_FLOAT", "tensorShape": {"dim": [{"size": "128"}]}}}, "dtype": {"type": "DT_FLOAT"}}}, {"name": "model_57/tf.nn.convolution_669/convolution/filter", "op": "Const", "attr": {"value": {"tensor": {"dtype": "DT_FLOAT", "tensorShape": {"dim": [{"size": "3"}, {"size": "3"}, {"size": "128"}, {"size": "128"}]}}}, "dtype": {"type": "DT_FLOAT"}}}, {"name": "model_57/tf.math.add_226/Add/y", "op": "Const", "attr": {"value": {"tensor": {"dtype": "DT_FLOAT", "tensorShape": {"dim": [{"size": "128"}]}}}, "dtype": {"type": "DT_FLOAT"}}}, {"name": "model_57/tf.nn.convolution_671/convolution/filter", "op": "Const", "attr": {"value": {"tensor": {"dtype": "DT_FLOAT", "tensorShape": {"dim": [{"size": "3"}, {"size": "3"}, {"size": "128"}, {"size": "128"}]}}}, "dtype": {"type": "DT_FLOAT"}}}, {"name": "model_57/tf.math.add_228/Add/y", "op": "Const", "attr": {"value": {"tensor": {"dtype": "DT_FLOAT", "tensorShape": {"dim": [{"size": "128"}]}}}, "dtype": {"type": "DT_FLOAT"}}}, {"name": "model_57/tf.nn.convolution_672/convolution/filter", "op": "Const", "attr": {"value": {"tensor": {"dtype": "DT_FLOAT", "tensorShape": {"dim": [{"size": "3"}, {"size": "3"}, {"size": "128"}, {"size": "128"}]}}}, "dtype": {"type": "DT_FLOAT"}}}, {"name": "model_57/tf.math.add_231/Add/y", "op": "Const", "attr": {"value": {"tensor": {"dtype": "DT_FLOAT", "tensorShape": {"dim": [{"size": "128"}]}}}, "dtype": {"type": "DT_FLOAT"}}}, {"name": "model_57/tf.nn.convolution_673/convolution/filter", "op": "Const", "attr": {"value": {"tensor": {"dtype": "DT_FLOAT", "tensorShape": {"dim": [{"size": "3"}, {"size": "3"}, {"size": "128"}, {"size": "128"}]}}}, "dtype": {"type": "DT_FLOAT"}}}, {"name": "model_57/tf.math.add_232/Add/y", "op": "Const", "attr": {"value": {"tensor": {"dtype": "DT_FLOAT", "tensorShape": {"dim": [{"size": "128"}]}}}, "dtype": {"type": "DT_FLOAT"}}}, {"name": "model_57/tf.strided_slice_40/ones_like/tensor", "op": "Const", "attr": {"value": {"tensor": {"dtype": "DT_INT64", "tensorShape": {"dim": [{"size": "4"}]}}}, "dtype": {"type": "DT_INT64"}}}, {"name": "model_57/tf.strided_slice_40/StridedSlice/end", "op": "Const", "attr": {"value": {"tensor": {"dtype": "DT_INT64", "tensorShape": {"dim": [{"size": "4"}]}}}, "dtype": {"type": "DT_INT64"}}}, {"name": "model_57/tf.strided_slice_40/ones_like", "op": "Const", "attr": {"value": {"tensor": {"dtype": "DT_INT64", "tensorShape": {"dim": [{"size": "4"}]}}}, "dtype": {"type": "DT_INT64"}}}, {"name": "model_57/tf.nn.convolution_652/convolution/filter", "op": "Const", "attr": {"value": {"tensor": {"dtype": "DT_FLOAT", "tensorShape": {"dim": [{"size": "1"}, {"size": "1"}, {"size": "128"}, {"size": "64"}]}}}, "dtype": {"type": "DT_FLOAT"}}}, {"name": "model_57/tf.math.add_203/Add/y", "op": "Const", "attr": {"value": {"tensor": {"dtype": "DT_FLOAT", "tensorShape": {"dim": [{"size": "64"}]}}}, "dtype": {"type": "DT_FLOAT"}}}, {"name": "model_57/tf.nn.convolution_654/convolution/filter", "op": "Const", "attr": {"value": {"tensor": {"dtype": "DT_FLOAT", "tensorShape": {"dim": [{"size": "3"}, {"size": "3"}, {"size": "64"}, {"size": "64"}]}}}, "dtype": {"type": "DT_FLOAT"}}}, {"name": "model_57/tf.math.add_205/Add/y", "op": "Const", "attr": {"value": {"tensor": {"dtype": "DT_FLOAT", "tensorShape": {"dim": [{"size": "64"}]}}}, "dtype": {"type": "DT_FLOAT"}}}, {"name": "model_57/tf.nn.convolution_655/convolution/filter", "op": "Const", "attr": {"value": {"tensor": {"dtype": "DT_FLOAT", "tensorShape": {"dim": [{"size": "3"}, {"size": "3"}, {"size": "64"}, {"size": "64"}]}}}, "dtype": {"type": "DT_FLOAT"}}}, {"name": "model_57/tf.math.add_206/Add/y", "op": "Const", "attr": {"value": {"tensor": {"dtype": "DT_FLOAT", "tensorShape": {"dim": [{"size": "64"}]}}}, "dtype": {"type": "DT_FLOAT"}}}, {"name": "model_57/tf.nn.convolution_656/convolution/filter", "op": "Const", "attr": {"value": {"tensor": {"dtype": "DT_FLOAT", "tensorShape": {"dim": [{"size": "3"}, {"size": "3"}, {"size": "64"}, {"size": "64"}]}}}, "dtype": {"type": "DT_FLOAT"}}}, {"name": "model_57/tf.math.add_209/Add/y", "op": "Const", "attr": {"value": {"tensor": {"dtype": "DT_FLOAT", "tensorShape": {"dim": [{"size": "64"}]}}}, "dtype": {"type": "DT_FLOAT"}}}, {"name": "model_57/tf.nn.convolution_657/convolution/filter", "op": "Const", "attr": {"value": {"tensor": {"dtype": "DT_FLOAT", "tensorShape": {"dim": [{"size": "3"}, {"size": "3"}, {"size": "64"}, {"size": "64"}]}}}, "dtype": {"type": "DT_FLOAT"}}}, {"name": "model_57/tf.math.add_210/Add/y", "op": "Const", "attr": {"value": {"tensor": {"dtype": "DT_FLOAT", "tensorShape": {"dim": [{"size": "64"}]}}}, "dtype": {"type": "DT_FLOAT"}}}, {"name": "model_57/tf.image.resize_3/resize/size", "op": "Const", "attr": {"value": {"tensor": {"dtype": "DT_INT32", "tensorShape": {"dim": [{"size": "2"}]}}}, "dtype": {"type": "DT_INT32"}}}, {"name": "model_57/tf.concat_43/concat/axis", "op": "Const", "attr": {"value": {"tensor": {"dtype": "DT_INT32", "tensorShape": {}}}, "dtype": {"type": "DT_INT32"}}}, {"name": "model_57/tf.nn.convolution_651/convolution/filter", "op": "Const", "attr": {"value": {"tensor": {"dtype": "DT_FLOAT", "tensorShape": {"dim": [{"size": "1"}, {"size": "1"}, {"size": "1024"}, {"size": "256"}]}}}, "dtype": {"type": "DT_FLOAT"}}}, {"name": "model_57/tf.math.add_202/Add/y", "op": "Const", "attr": {"value": {"tensor": {"dtype": "DT_FLOAT", "tensorShape": {"dim": [{"size": "256"}]}}}, "dtype": {"type": "DT_FLOAT"}}}, {"name": "model_57/tf.strided_slice_41/ones_like/tensor", "op": "Const", "attr": {"value": {"tensor": {"dtype": "DT_INT64", "tensorShape": {"dim": [{"size": "4"}]}}}, "dtype": {"type": "DT_INT64"}}}, {"name": "model_57/tf.strided_slice_41/StridedSlice/end", "op": "Const", "attr": {"value": {"tensor": {"dtype": "DT_INT64", "tensorShape": {"dim": [{"size": "4"}]}}}, "dtype": {"type": "DT_INT64"}}}, {"name": "model_57/tf.strided_slice_41/ones_like", "op": "Const", "attr": {"value": {"tensor": {"dtype": "DT_INT64", "tensorShape": {"dim": [{"size": "4"}]}}}, "dtype": {"type": "DT_INT64"}}}, {"name": "model_57/tf.nn.convolution_653/convolution/filter", "op": "Const", "attr": {"value": {"tensor": {"dtype": "DT_FLOAT", "tensorShape": {"dim": [{"size": "1"}, {"size": "1"}, {"size": "128"}, {"size": "64"}]}}}, "dtype": {"type": "DT_FLOAT"}}}, {"name": "model_57/tf.math.add_204/Add/y", "op": "Const", "attr": {"value": {"tensor": {"dtype": "DT_FLOAT", "tensorShape": {"dim": [{"size": "64"}]}}}, "dtype": {"type": "DT_FLOAT"}}}, {"name": "model_57/tf.concat_44/concat/axis", "op": "Const", "attr": {"value": {"tensor": {"dtype": "DT_INT32", "tensorShape": {}}}, "dtype": {"type": "DT_INT32"}}}, {"name": "model_57/tf.nn.convolution_658/convolution/filter", "op": "Const", "attr": {"value": {"tensor": {"dtype": "DT_FLOAT", "tensorShape": {"dim": [{"size": "1"}, {"size": "1"}, {"size": "128"}, {"size": "128"}]}}}, "dtype": {"type": "DT_FLOAT"}}}, {"name": "model_57/tf.math.add_213/Add/y", "op": "Const", "attr": {"value": {"tensor": {"dtype": "DT_FLOAT", "tensorShape": {"dim": [{"size": "128"}]}}}, "dtype": {"type": "DT_FLOAT"}}}, {"name": "model_57/tf.concat_45/concat/axis", "op": "Const", "attr": {"value": {"tensor": {"dtype": "DT_INT32", "tensorShape": {}}}, "dtype": {"type": "DT_INT32"}}}, {"name": "model_57/tf.nn.convolution_659/convolution/filter", "op": "Const", "attr": {"value": {"tensor": {"dtype": "DT_FLOAT", "tensorShape": {"dim": [{"size": "1"}, {"size": "1"}, {"size": "384"}, {"size": "256"}]}}}, "dtype": {"type": "DT_FLOAT"}}}, {"name": "model_57/tf.math.add_214/Add/y", "op": "Const", "attr": {"value": {"tensor": {"dtype": "DT_FLOAT", "tensorShape": {"dim": [{"size": "256"}]}}}, "dtype": {"type": "DT_FLOAT"}}}, {"name": "model_57/tf.compat.v1.pad_12/Pad/paddings", "op": "Const", "attr": {"value": {"tensor": {"dtype": "DT_INT32", "tensorShape": {"dim": [{"size": "4"}, {"size": "2"}]}}}, "dtype": {"type": "DT_INT32"}}}, {"name": "model_57/tf.nn.convolution_660/convolution/filter", "op": "Const", "attr": {"value": {"tensor": {"dtype": "DT_FLOAT", "tensorShape": {"dim": [{"size": "3"}, {"size": "3"}, {"size": "256"}, {"size": "256"}]}}}, "dtype": {"type": "DT_FLOAT"}}}, {"name": "model_57/tf.math.add_215/Add/y", "op": "Const", "attr": {"value": {"tensor": {"dtype": "DT_FLOAT", "tensorShape": {"dim": [{"size": "256"}]}}}, "dtype": {"type": "DT_FLOAT"}}}, {"name": "model_57/tf.strided_slice_38/ones_like/tensor", "op": "Const", "attr": {"value": {"tensor": {"dtype": "DT_INT64", "tensorShape": {"dim": [{"size": "4"}]}}}, "dtype": {"type": "DT_INT64"}}}, {"name": "model_57/tf.strided_slice_38/StridedSlice/end", "op": "Const", "attr": {"value": {"tensor": {"dtype": "DT_INT64", "tensorShape": {"dim": [{"size": "4"}]}}}, "dtype": {"type": "DT_INT64"}}}, {"name": "model_57/tf.strided_slice_38/ones_like", "op": "Const", "attr": {"value": {"tensor": {"dtype": "DT_INT64", "tensorShape": {"dim": [{"size": "4"}]}}}, "dtype": {"type": "DT_INT64"}}}, {"name": "model_57/tf.nn.convolution_643/convolution/filter", "op": "Const", "attr": {"value": {"tensor": {"dtype": "DT_FLOAT", "tensorShape": {"dim": [{"size": "1"}, {"size": "1"}, {"size": "256"}, {"size": "128"}]}}}, "dtype": {"type": "DT_FLOAT"}}}, {"name": "model_57/tf.math.add_190/Add/y", "op": "Const", "attr": {"value": {"tensor": {"dtype": "DT_FLOAT", "tensorShape": {"dim": [{"size": "128"}]}}}, "dtype": {"type": "DT_FLOAT"}}}, {"name": "model_57/tf.nn.convolution_645/convolution/filter", "op": "Const", "attr": {"value": {"tensor": {"dtype": "DT_FLOAT", "tensorShape": {"dim": [{"size": "3"}, {"size": "3"}, {"size": "128"}, {"size": "128"}]}}}, "dtype": {"type": "DT_FLOAT"}}}, {"name": "model_57/tf.math.add_192/Add/y", "op": "Const", "attr": {"value": {"tensor": {"dtype": "DT_FLOAT", "tensorShape": {"dim": [{"size": "128"}]}}}, "dtype": {"type": "DT_FLOAT"}}}, {"name": "model_57/tf.nn.convolution_646/convolution/filter", "op": "Const", "attr": {"value": {"tensor": {"dtype": "DT_FLOAT", "tensorShape": {"dim": [{"size": "3"}, {"size": "3"}, {"size": "128"}, {"size": "128"}]}}}, "dtype": {"type": "DT_FLOAT"}}}, {"name": "model_57/tf.math.add_193/Add/y", "op": "Const", "attr": {"value": {"tensor": {"dtype": "DT_FLOAT", "tensorShape": {"dim": [{"size": "128"}]}}}, "dtype": {"type": "DT_FLOAT"}}}, {"name": "model_57/tf.nn.convolution_647/convolution/filter", "op": "Const", "attr": {"value": {"tensor": {"dtype": "DT_FLOAT", "tensorShape": {"dim": [{"size": "3"}, {"size": "3"}, {"size": "128"}, {"size": "128"}]}}}, "dtype": {"type": "DT_FLOAT"}}}, {"name": "model_57/tf.math.add_196/Add/y", "op": "Const", "attr": {"value": {"tensor": {"dtype": "DT_FLOAT", "tensorShape": {"dim": [{"size": "128"}]}}}, "dtype": {"type": "DT_FLOAT"}}}, {"name": "model_57/tf.nn.convolution_648/convolution/filter", "op": "Const", "attr": {"value": {"tensor": {"dtype": "DT_FLOAT", "tensorShape": {"dim": [{"size": "3"}, {"size": "3"}, {"size": "128"}, {"size": "128"}]}}}, "dtype": {"type": "DT_FLOAT"}}}, {"name": "model_57/tf.math.add_197/Add/y", "op": "Const", "attr": {"value": {"tensor": {"dtype": "DT_FLOAT", "tensorShape": {"dim": [{"size": "128"}]}}}, "dtype": {"type": "DT_FLOAT"}}}, {"name": "model_57/tf.image.resize_2/resize/size", "op": "Const", "attr": {"value": {"tensor": {"dtype": "DT_INT32", "tensorShape": {"dim": [{"size": "2"}]}}}, "dtype": {"type": "DT_INT32"}}}, {"name": "model_57/tf.concat_40/concat/axis", "op": "Const", "attr": {"value": {"tensor": {"dtype": "DT_INT32", "tensorShape": {}}}, "dtype": {"type": "DT_INT32"}}}, {"name": "model_57/tf.nn.convolution_642/convolution/filter", "op": "Const", "attr": {"value": {"tensor": {"dtype": "DT_FLOAT", "tensorShape": {"dim": [{"size": "1"}, {"size": "1"}, {"size": "1024"}, {"size": "512"}]}}}, "dtype": {"type": "DT_FLOAT"}}}, {"name": "model_57/tf.math.add_189/Add/y", "op": "Const", "attr": {"value": {"tensor": {"dtype": "DT_FLOAT", "tensorShape": {"dim": [{"size": "512"}]}}}, "dtype": {"type": "DT_FLOAT"}}}, {"name": "model_57/tf.strided_slice_39/ones_like/tensor", "op": "Const", "attr": {"value": {"tensor": {"dtype": "DT_INT64", "tensorShape": {"dim": [{"size": "4"}]}}}, "dtype": {"type": "DT_INT64"}}}, {"name": "model_57/tf.strided_slice_39/StridedSlice/end", "op": "Const", "attr": {"value": {"tensor": {"dtype": "DT_INT64", "tensorShape": {"dim": [{"size": "4"}]}}}, "dtype": {"type": "DT_INT64"}}}, {"name": "model_57/tf.strided_slice_39/ones_like", "op": "Const", "attr": {"value": {"tensor": {"dtype": "DT_INT64", "tensorShape": {"dim": [{"size": "4"}]}}}, "dtype": {"type": "DT_INT64"}}}, {"name": "model_57/tf.nn.convolution_644/convolution/filter", "op": "Const", "attr": {"value": {"tensor": {"dtype": "DT_FLOAT", "tensorShape": {"dim": [{"size": "1"}, {"size": "1"}, {"size": "256"}, {"size": "128"}]}}}, "dtype": {"type": "DT_FLOAT"}}}, {"name": "model_57/tf.math.add_191/Add/y", "op": "Const", "attr": {"value": {"tensor": {"dtype": "DT_FLOAT", "tensorShape": {"dim": [{"size": "128"}]}}}, "dtype": {"type": "DT_FLOAT"}}}, {"name": "model_57/tf.concat_41/concat/axis", "op": "Const", "attr": {"value": {"tensor": {"dtype": "DT_INT32", "tensorShape": {}}}, "dtype": {"type": "DT_INT32"}}}, {"name": "model_57/tf.nn.convolution_649/convolution/filter", "op": "Const", "attr": {"value": {"tensor": {"dtype": "DT_FLOAT", "tensorShape": {"dim": [{"size": "1"}, {"size": "1"}, {"size": "256"}, {"size": "256"}]}}}, "dtype": {"type": "DT_FLOAT"}}}, {"name": "model_57/tf.math.add_200/Add/y", "op": "Const", "attr": {"value": {"tensor": {"dtype": "DT_FLOAT", "tensorShape": {"dim": [{"size": "256"}]}}}, "dtype": {"type": "DT_FLOAT"}}}, {"name": "model_57/tf.concat_42/concat/axis", "op": "Const", "attr": {"value": {"tensor": {"dtype": "DT_INT32", "tensorShape": {}}}, "dtype": {"type": "DT_INT32"}}}, {"name": "model_57/tf.nn.convolution_650/convolution/filter", "op": "Const", "attr": {"value": {"tensor": {"dtype": "DT_FLOAT", "tensorShape": {"dim": [{"size": "1"}, {"size": "1"}, {"size": "768"}, {"size": "512"}]}}}, "dtype": {"type": "DT_FLOAT"}}}, {"name": "model_57/tf.math.add_201/Add/y", "op": "Const", "attr": {"value": {"tensor": {"dtype": "DT_FLOAT", "tensorShape": {"dim": [{"size": "512"}]}}}, "dtype": {"type": "DT_FLOAT"}}}, {"name": "model_57/tf.concat_46/concat/axis", "op": "Const", "attr": {"value": {"tensor": {"dtype": "DT_INT32", "tensorShape": {}}}, "dtype": {"type": "DT_INT32"}}}, {"name": "model_57/tf.nn.convolution_664/convolution/filter", "op": "Const", "attr": {"value": {"tensor": {"dtype": "DT_FLOAT", "tensorShape": {"dim": [{"size": "1"}, {"size": "1"}, {"size": "768"}, {"size": "512"}]}}}, "dtype": {"type": "DT_FLOAT"}}}, {"name": "model_57/tf.math.add_220/Add/y", "op": "Const", "attr": {"value": {"tensor": {"dtype": "DT_FLOAT", "tensorShape": {"dim": [{"size": "512"}]}}}, "dtype": {"type": "DT_FLOAT"}}}, {"name": "model_57/tf.strided_slice_43/ones_like/tensor", "op": "Const", "attr": {"value": {"tensor": {"dtype": "DT_INT64", "tensorShape": {"dim": [{"size": "4"}]}}}, "dtype": {"type": "DT_INT64"}}}, {"name": "model_57/tf.strided_slice_43/StridedSlice/end", "op": "Const", "attr": {"value": {"tensor": {"dtype": "DT_INT64", "tensorShape": {"dim": [{"size": "4"}]}}}, "dtype": {"type": "DT_INT64"}}}, {"name": "model_57/tf.strided_slice_43/ones_like", "op": "Const", "attr": {"value": {"tensor": {"dtype": "DT_INT64", "tensorShape": {"dim": [{"size": "4"}]}}}, "dtype": {"type": "DT_INT64"}}}, {"name": "model_57/tf.nn.convolution_667/convolution/filter", "op": "Const", "attr": {"value": {"tensor": {"dtype": "DT_FLOAT", "tensorShape": {"dim": [{"size": "1"}, {"size": "1"}, {"size": "256"}, {"size": "128"}]}}}, "dtype": {"type": "DT_FLOAT"}}}, {"name": "model_57/tf.math.add_224/Add/y", "op": "Const", "attr": {"value": {"tensor": {"dtype": "DT_FLOAT", "tensorShape": {"dim": [{"size": "128"}]}}}, "dtype": {"type": "DT_FLOAT"}}}, {"name": "model_57/tf.concat_50/concat/axis", "op": "Const", "attr": {"value": {"tensor": {"dtype": "DT_INT32", "tensorShape": {}}}, "dtype": {"type": "DT_INT32"}}}, {"name": "model_57/tf.nn.convolution_674/convolution/filter", "op": "Const", "attr": {"value": {"tensor": {"dtype": "DT_FLOAT", "tensorShape": {"dim": [{"size": "1"}, {"size": "1"}, {"size": "256"}, {"size": "256"}]}}}, "dtype": {"type": "DT_FLOAT"}}}, {"name": "model_57/tf.math.add_235/Add/y", "op": "Const", "attr": {"value": {"tensor": {"dtype": "DT_FLOAT", "tensorShape": {"dim": [{"size": "256"}]}}}, "dtype": {"type": "DT_FLOAT"}}}, {"name": "model_57/tf.concat_51/concat/axis", "op": "Const", "attr": {"value": {"tensor": {"dtype": "DT_INT32", "tensorShape": {}}}, "dtype": {"type": "DT_INT32"}}}, {"name": "model_57/tf.nn.convolution_675/convolution/filter", "op": "Const", "attr": {"value": {"tensor": {"dtype": "DT_FLOAT", "tensorShape": {"dim": [{"size": "1"}, {"size": "1"}, {"size": "768"}, {"size": "512"}]}}}, "dtype": {"type": "DT_FLOAT"}}}, {"name": "model_57/tf.math.add_236/Add/y", "op": "Const", "attr": {"value": {"tensor": {"dtype": "DT_FLOAT", "tensorShape": {"dim": [{"size": "512"}]}}}, "dtype": {"type": "DT_FLOAT"}}}, {"name": "model_57/tf.compat.v1.pad_13/Pad/paddings", "op": "Const", "attr": {"value": {"tensor": {"dtype": "DT_INT32", "tensorShape": {"dim": [{"size": "4"}, {"size": "2"}]}}}, "dtype": {"type": "DT_INT32"}}}, {"name": "model_57/tf.nn.convolution_676/convolution/filter", "op": "Const", "attr": {"value": {"tensor": {"dtype": "DT_FLOAT", "tensorShape": {"dim": [{"size": "3"}, {"size": "3"}, {"size": "512"}, {"size": "512"}]}}}, "dtype": {"type": "DT_FLOAT"}}}, {"name": "model_57/tf.math.add_237/Add/y", "op": "Const", "attr": {"value": {"tensor": {"dtype": "DT_FLOAT", "tensorShape": {"dim": [{"size": "512"}]}}}, "dtype": {"type": "DT_FLOAT"}}}, {"name": "model_57/tf.strided_slice_33/StridedSlice/begin", "op": "Const", "attr": {"value": {"tensor": {"dtype": "DT_INT32", "tensorShape": {"dim": [{"size": "4"}]}}}, "dtype": {"type": "DT_INT32"}}}, {"name": "model_57/tf.strided_slice_33/StridedSlice/end", "op": "Const", "attr": {"value": {"tensor": {"dtype": "DT_INT32", "tensorShape": {"dim": [{"size": "4"}]}}}, "dtype": {"type": "DT_INT32"}}}, {"name": "model_57/tf.strided_slice_33/ones_like", "op": "Const", "attr": {"value": {"tensor": {"dtype": "DT_INT32", "tensorShape": {"dim": [{"size": "4"}]}}}, "dtype": {"type": "DT_INT32"}}}, {"name": "model_57/tf.math.add_185/Add/y", "op": "Const", "attr": {"value": {"tensor": {"dtype": "DT_FLOAT", "tensorShape": {"dim": [{"size": "256"}]}}}, "dtype": {"type": "DT_FLOAT"}}}, {"name": "model_57/tf.math.add_178/Add/y", "op": "Const", "attr": {"value": {"tensor": {"dtype": "DT_FLOAT", "tensorShape": {"dim": [{"size": "256"}]}}}, "dtype": {"type": "DT_FLOAT"}}}, {"name": "model_57/tf.strided_slice_35/StridedSlice/begin", "op": "Const", "attr": {"value": {"tensor": {"dtype": "DT_INT32", "tensorShape": {"dim": [{"size": "4"}]}}}, "dtype": {"type": "DT_INT32"}}}, {"name": "model_57/tf.strided_slice_35/StridedSlice/end", "op": "Const", "attr": {"value": {"tensor": {"dtype": "DT_INT32", "tensorShape": {"dim": [{"size": "4"}]}}}, "dtype": {"type": "DT_INT32"}}}, {"name": "model_57/tf.strided_slice_35/ones_like", "op": "Const", "attr": {"value": {"tensor": {"dtype": "DT_INT32", "tensorShape": {"dim": [{"size": "4"}]}}}, "dtype": {"type": "DT_INT32"}}}, {"name": "model_57/tf.strided_slice_36/StridedSlice/begin", "op": "Const", "attr": {"value": {"tensor": {"dtype": "DT_INT32", "tensorShape": {"dim": [{"size": "4"}]}}}, "dtype": {"type": "DT_INT32"}}}, {"name": "model_57/tf.strided_slice_36/StridedSlice/end", "op": "Const", "attr": {"value": {"tensor": {"dtype": "DT_INT32", "tensorShape": {"dim": [{"size": "4"}]}}}, "dtype": {"type": "DT_INT32"}}}, {"name": "model_57/tf.strided_slice_36/ones_like", "op": "Const", "attr": {"value": {"tensor": {"dtype": "DT_INT32", "tensorShape": {"dim": [{"size": "4"}]}}}, "dtype": {"type": "DT_INT32"}}}, {"name": "model_57/tf.math.multiply_546/Mul/y", "op": "Const", "attr": {"value": {"tensor": {"dtype": "DT_FLOAT", "tensorShape": {}}}, "dtype": {"type": "DT_FLOAT"}}}, {"name": "model_57/tf.reshape_32/Reshape/shape", "op": "Const", "attr": {"value": {"tensor": {"dtype": "DT_INT32", "tensorShape": {"dim": [{"size": "4"}]}}}, "dtype": {"type": "DT_INT32"}}}, {"name": "model_57/tf.compat.v1.transpose_206/transpose/perm", "op": "Const", "attr": {"value": {"tensor": {"dtype": "DT_INT32", "tensorShape": {"dim": [{"size": "4"}]}}}, "dtype": {"type": "DT_INT32"}}}, {"name": "model_57/tf.nn.convolution_382/convolution/filter", "op": "Const", "attr": {"value": {"tensor": {"dtype": "DT_FLOAT", "tensorShape": {"dim": [{"size": "3"}, {"size": "3"}, {"size": "1"}, {"size": "1"}]}}}, "dtype": {"type": "DT_FLOAT"}}}, {"name": "model_57/tf.nn.convolution_383/convolution/filter", "op": "Const", "attr": {"value": {"tensor": {"dtype": "DT_FLOAT", "tensorShape": {"dim": [{"size": "3"}, {"size": "3"}, {"size": "1"}, {"size": "1"}]}}}, "dtype": {"type": "DT_FLOAT"}}}, {"name": "model_57/tf.nn.convolution_384/convolution/filter", "op": "Const", "attr": {"value": {"tensor": {"dtype": "DT_FLOAT", "tensorShape": {"dim": [{"size": "3"}, {"size": "3"}, {"size": "1"}, {"size": "1"}]}}}, "dtype": {"type": "DT_FLOAT"}}}, {"name": "model_57/tf.nn.convolution_385/convolution/filter", "op": "Const", "attr": {"value": {"tensor": {"dtype": "DT_FLOAT", "tensorShape": {"dim": [{"size": "3"}, {"size": "3"}, {"size": "1"}, {"size": "1"}]}}}, "dtype": {"type": "DT_FLOAT"}}}, {"name": "model_57/tf.nn.convolution_386/convolution/filter", "op": "Const", "attr": {"value": {"tensor": {"dtype": "DT_FLOAT", "tensorShape": {"dim": [{"size": "3"}, {"size": "3"}, {"size": "1"}, {"size": "1"}]}}}, "dtype": {"type": "DT_FLOAT"}}}, {"name": "model_57/tf.nn.convolution_387/convolution/filter", "op": "Const", "attr": {"value": {"tensor": {"dtype": "DT_FLOAT", "tensorShape": {"dim": [{"size": "3"}, {"size": "3"}, {"size": "1"}, {"size": "1"}]}}}, "dtype": {"type": "DT_FLOAT"}}}, {"name": "model_57/tf.nn.convolution_388/convolution/filter", "op": "Const", "attr": {"value": {"tensor": {"dtype": "DT_FLOAT", "tensorShape": {"dim": [{"size": "3"}, {"size": "3"}, {"size": "1"}, {"size": "1"}]}}}, "dtype": {"type": "DT_FLOAT"}}}, {"name": "model_57/tf.nn.convolution_389/convolution/filter", "op": "Const", "attr": {"value": {"tensor": {"dtype": "DT_FLOAT", "tensorShape": {"dim": [{"size": "3"}, {"size": "3"}, {"size": "1"}, {"size": "1"}]}}}, "dtype": {"type": "DT_FLOAT"}}}, {"name": "model_57/tf.nn.convolution_390/convolution/filter", "op": "Const", "attr": {"value": {"tensor": {"dtype": "DT_FLOAT", "tensorShape": {"dim": [{"size": "3"}, {"size": "3"}, {"size": "1"}, {"size": "1"}]}}}, "dtype": {"type": "DT_FLOAT"}}}, {"name": "model_57/tf.nn.convolution_391/convolution/filter", "op": "Const", "attr": {"value": {"tensor": {"dtype": "DT_FLOAT", "tensorShape": {"dim": [{"size": "3"}, {"size": "3"}, {"size": "1"}, {"size": "1"}]}}}, "dtype": {"type": "DT_FLOAT"}}}, {"name": "model_57/tf.nn.convolution_392/convolution/filter", "op": "Const", "attr": {"value": {"tensor": {"dtype": "DT_FLOAT", "tensorShape": {"dim": [{"size": "3"}, {"size": "3"}, {"size": "1"}, {"size": "1"}]}}}, "dtype": {"type": "DT_FLOAT"}}}, {"name": "model_57/tf.nn.convolution_393/convolution/filter", "op": "Const", "attr": {"value": {"tensor": {"dtype": "DT_FLOAT", "tensorShape": {"dim": [{"size": "3"}, {"size": "3"}, {"size": "1"}, {"size": "1"}]}}}, "dtype": {"type": "DT_FLOAT"}}}, {"name": "model_57/tf.nn.convolution_394/convolution/filter", "op": "Const", "attr": {"value": {"tensor": {"dtype": "DT_FLOAT", "tensorShape": {"dim": [{"size": "3"}, {"size": "3"}, {"size": "1"}, {"size": "1"}]}}}, "dtype": {"type": "DT_FLOAT"}}}, {"name": "model_57/tf.nn.convolution_395/convolution/filter", "op": "Const", "attr": {"value": {"tensor": {"dtype": "DT_FLOAT", "tensorShape": {"dim": [{"size": "3"}, {"size": "3"}, {"size": "1"}, {"size": "1"}]}}}, "dtype": {"type": "DT_FLOAT"}}}, {"name": "model_57/tf.nn.convolution_396/convolution/filter", "op": "Const", "attr": {"value": {"tensor": {"dtype": "DT_FLOAT", "tensorShape": {"dim": [{"size": "3"}, {"size": "3"}, {"size": "1"}, {"size": "1"}]}}}, "dtype": {"type": "DT_FLOAT"}}}, {"name": "model_57/tf.nn.convolution_397/convolution/filter", "op": "Const", "attr": {"value": {"tensor": {"dtype": "DT_FLOAT", "tensorShape": {"dim": [{"size": "3"}, {"size": "3"}, {"size": "1"}, {"size": "1"}]}}}, "dtype": {"type": "DT_FLOAT"}}}, {"name": "model_57/tf.nn.convolution_398/convolution/filter", "op": "Const", "attr": {"value": {"tensor": {"dtype": "DT_FLOAT", "tensorShape": {"dim": [{"size": "3"}, {"size": "3"}, {"size": "1"}, {"size": "1"}]}}}, "dtype": {"type": "DT_FLOAT"}}}, {"name": "model_57/tf.nn.convolution_399/convolution/filter", "op": "Const", "attr": {"value": {"tensor": {"dtype": "DT_FLOAT", "tensorShape": {"dim": [{"size": "3"}, {"size": "3"}, {"size": "1"}, {"size": "1"}]}}}, "dtype": {"type": "DT_FLOAT"}}}, {"name": "model_57/tf.nn.convolution_400/convolution/filter", "op": "Const", "attr": {"value": {"tensor": {"dtype": "DT_FLOAT", "tensorShape": {"dim": [{"size": "3"}, {"size": "3"}, {"size": "1"}, {"size": "1"}]}}}, "dtype": {"type": "DT_FLOAT"}}}, {"name": "model_57/tf.nn.convolution_401/convolution/filter", "op": "Const", "attr": {"value": {"tensor": {"dtype": "DT_FLOAT", "tensorShape": {"dim": [{"size": "3"}, {"size": "3"}, {"size": "1"}, {"size": "1"}]}}}, "dtype": {"type": "DT_FLOAT"}}}, {"name": "model_57/tf.nn.convolution_402/convolution/filter", "op": "Const", "attr": {"value": {"tensor": {"dtype": "DT_FLOAT", "tensorShape": {"dim": [{"size": "3"}, {"size": "3"}, {"size": "1"}, {"size": "1"}]}}}, "dtype": {"type": "DT_FLOAT"}}}, {"name": "model_57/tf.nn.convolution_403/convolution/filter", "op": "Const", "attr": {"value": {"tensor": {"dtype": "DT_FLOAT", "tensorShape": {"dim": [{"size": "3"}, {"size": "3"}, {"size": "1"}, {"size": "1"}]}}}, "dtype": {"type": "DT_FLOAT"}}}, {"name": "model_57/tf.nn.convolution_404/convolution/filter", "op": "Const", "attr": {"value": {"tensor": {"dtype": "DT_FLOAT", "tensorShape": {"dim": [{"size": "3"}, {"size": "3"}, {"size": "1"}, {"size": "1"}]}}}, "dtype": {"type": "DT_FLOAT"}}}, {"name": "model_57/tf.nn.convolution_405/convolution/filter", "op": "Const", "attr": {"value": {"tensor": {"dtype": "DT_FLOAT", "tensorShape": {"dim": [{"size": "3"}, {"size": "3"}, {"size": "1"}, {"size": "1"}]}}}, "dtype": {"type": "DT_FLOAT"}}}, {"name": "model_57/tf.nn.convolution_406/convolution/filter", "op": "Const", "attr": {"value": {"tensor": {"dtype": "DT_FLOAT", "tensorShape": {"dim": [{"size": "3"}, {"size": "3"}, {"size": "1"}, {"size": "1"}]}}}, "dtype": {"type": "DT_FLOAT"}}}, {"name": "model_57/tf.nn.convolution_407/convolution/filter", "op": "Const", "attr": {"value": {"tensor": {"dtype": "DT_FLOAT", "tensorShape": {"dim": [{"size": "3"}, {"size": "3"}, {"size": "1"}, {"size": "1"}]}}}, "dtype": {"type": "DT_FLOAT"}}}, {"name": "model_57/tf.nn.convolution_408/convolution/filter", "op": "Const", "attr": {"value": {"tensor": {"dtype": "DT_FLOAT", "tensorShape": {"dim": [{"size": "3"}, {"size": "3"}, {"size": "1"}, {"size": "1"}]}}}, "dtype": {"type": "DT_FLOAT"}}}, {"name": "model_57/tf.nn.convolution_409/convolution/filter", "op": "Const", "attr": {"value": {"tensor": {"dtype": "DT_FLOAT", "tensorShape": {"dim": [{"size": "3"}, {"size": "3"}, {"size": "1"}, {"size": "1"}]}}}, "dtype": {"type": "DT_FLOAT"}}}, {"name": "model_57/tf.nn.convolution_410/convolution/filter", "op": "Const", "attr": {"value": {"tensor": {"dtype": "DT_FLOAT", "tensorShape": {"dim": [{"size": "3"}, {"size": "3"}, {"size": "1"}, {"size": "1"}]}}}, "dtype": {"type": "DT_FLOAT"}}}, {"name": "model_57/tf.nn.convolution_411/convolution/filter", "op": "Const", "attr": {"value": {"tensor": {"dtype": "DT_FLOAT", "tensorShape": {"dim": [{"size": "3"}, {"size": "3"}, {"size": "1"}, {"size": "1"}]}}}, "dtype": {"type": "DT_FLOAT"}}}, {"name": "model_57/tf.nn.convolution_412/convolution/filter", "op": "Const", "attr": {"value": {"tensor": {"dtype": "DT_FLOAT", "tensorShape": {"dim": [{"size": "3"}, {"size": "3"}, {"size": "1"}, {"size": "1"}]}}}, "dtype": {"type": "DT_FLOAT"}}}, {"name": "model_57/tf.nn.convolution_413/convolution/filter", "op": "Const", "attr": {"value": {"tensor": {"dtype": "DT_FLOAT", "tensorShape": {"dim": [{"size": "3"}, {"size": "3"}, {"size": "1"}, {"size": "1"}]}}}, "dtype": {"type": "DT_FLOAT"}}}, {"name": "model_57/tf.nn.convolution_414/convolution/filter", "op": "Const", "attr": {"value": {"tensor": {"dtype": "DT_FLOAT", "tensorShape": {"dim": [{"size": "3"}, {"size": "3"}, {"size": "1"}, {"size": "1"}]}}}, "dtype": {"type": "DT_FLOAT"}}}, {"name": "model_57/tf.nn.convolution_415/convolution/filter", "op": "Const", "attr": {"value": {"tensor": {"dtype": "DT_FLOAT", "tensorShape": {"dim": [{"size": "3"}, {"size": "3"}, {"size": "1"}, {"size": "1"}]}}}, "dtype": {"type": "DT_FLOAT"}}}, {"name": "model_57/tf.nn.convolution_416/convolution/filter", "op": "Const", "attr": {"value": {"tensor": {"dtype": "DT_FLOAT", "tensorShape": {"dim": [{"size": "3"}, {"size": "3"}, {"size": "1"}, {"size": "1"}]}}}, "dtype": {"type": "DT_FLOAT"}}}, {"name": "model_57/tf.nn.convolution_417/convolution/filter", "op": "Const", "attr": {"value": {"tensor": {"dtype": "DT_FLOAT", "tensorShape": {"dim": [{"size": "3"}, {"size": "3"}, {"size": "1"}, {"size": "1"}]}}}, "dtype": {"type": "DT_FLOAT"}}}, {"name": "model_57/tf.nn.convolution_418/convolution/filter", "op": "Const", "attr": {"value": {"tensor": {"dtype": "DT_FLOAT", "tensorShape": {"dim": [{"size": "3"}, {"size": "3"}, {"size": "1"}, {"size": "1"}]}}}, "dtype": {"type": "DT_FLOAT"}}}, {"name": "model_57/tf.nn.convolution_419/convolution/filter", "op": "Const", "attr": {"value": {"tensor": {"dtype": "DT_FLOAT", "tensorShape": {"dim": [{"size": "3"}, {"size": "3"}, {"size": "1"}, {"size": "1"}]}}}, "dtype": {"type": "DT_FLOAT"}}}, {"name": "model_57/tf.nn.convolution_420/convolution/filter", "op": "Const", "attr": {"value": {"tensor": {"dtype": "DT_FLOAT", "tensorShape": {"dim": [{"size": "3"}, {"size": "3"}, {"size": "1"}, {"size": "1"}]}}}, "dtype": {"type": "DT_FLOAT"}}}, {"name": "model_57/tf.nn.convolution_421/convolution/filter", "op": "Const", "attr": {"value": {"tensor": {"dtype": "DT_FLOAT", "tensorShape": {"dim": [{"size": "3"}, {"size": "3"}, {"size": "1"}, {"size": "1"}]}}}, "dtype": {"type": "DT_FLOAT"}}}, {"name": "model_57/tf.nn.convolution_422/convolution/filter", "op": "Const", "attr": {"value": {"tensor": {"dtype": "DT_FLOAT", "tensorShape": {"dim": [{"size": "3"}, {"size": "3"}, {"size": "1"}, {"size": "1"}]}}}, "dtype": {"type": "DT_FLOAT"}}}, {"name": "model_57/tf.nn.convolution_423/convolution/filter", "op": "Const", "attr": {"value": {"tensor": {"dtype": "DT_FLOAT", "tensorShape": {"dim": [{"size": "3"}, {"size": "3"}, {"size": "1"}, {"size": "1"}]}}}, "dtype": {"type": "DT_FLOAT"}}}, {"name": "model_57/tf.nn.convolution_424/convolution/filter", "op": "Const", "attr": {"value": {"tensor": {"dtype": "DT_FLOAT", "tensorShape": {"dim": [{"size": "3"}, {"size": "3"}, {"size": "1"}, {"size": "1"}]}}}, "dtype": {"type": "DT_FLOAT"}}}, {"name": "model_57/tf.nn.convolution_425/convolution/filter", "op": "Const", "attr": {"value": {"tensor": {"dtype": "DT_FLOAT", "tensorShape": {"dim": [{"size": "3"}, {"size": "3"}, {"size": "1"}, {"size": "1"}]}}}, "dtype": {"type": "DT_FLOAT"}}}, {"name": "model_57/tf.nn.convolution_426/convolution/filter", "op": "Const", "attr": {"value": {"tensor": {"dtype": "DT_FLOAT", "tensorShape": {"dim": [{"size": "3"}, {"size": "3"}, {"size": "1"}, {"size": "1"}]}}}, "dtype": {"type": "DT_FLOAT"}}}, {"name": "model_57/tf.nn.convolution_427/convolution/filter", "op": "Const", "attr": {"value": {"tensor": {"dtype": "DT_FLOAT", "tensorShape": {"dim": [{"size": "3"}, {"size": "3"}, {"size": "1"}, {"size": "1"}]}}}, "dtype": {"type": "DT_FLOAT"}}}, {"name": "model_57/tf.nn.convolution_428/convolution/filter", "op": "Const", "attr": {"value": {"tensor": {"dtype": "DT_FLOAT", "tensorShape": {"dim": [{"size": "3"}, {"size": "3"}, {"size": "1"}, {"size": "1"}]}}}, "dtype": {"type": "DT_FLOAT"}}}, {"name": "model_57/tf.nn.convolution_429/convolution/filter", "op": "Const", "attr": {"value": {"tensor": {"dtype": "DT_FLOAT", "tensorShape": {"dim": [{"size": "3"}, {"size": "3"}, {"size": "1"}, {"size": "1"}]}}}, "dtype": {"type": "DT_FLOAT"}}}, {"name": "model_57/tf.nn.convolution_430/convolution/filter", "op": "Const", "attr": {"value": {"tensor": {"dtype": "DT_FLOAT", "tensorShape": {"dim": [{"size": "3"}, {"size": "3"}, {"size": "1"}, {"size": "1"}]}}}, "dtype": {"type": "DT_FLOAT"}}}, {"name": "model_57/tf.nn.convolution_431/convolution/filter", "op": "Const", "attr": {"value": {"tensor": {"dtype": "DT_FLOAT", "tensorShape": {"dim": [{"size": "3"}, {"size": "3"}, {"size": "1"}, {"size": "1"}]}}}, "dtype": {"type": "DT_FLOAT"}}}, {"name": "model_57/tf.nn.convolution_432/convolution/filter", "op": "Const", "attr": {"value": {"tensor": {"dtype": "DT_FLOAT", "tensorShape": {"dim": [{"size": "3"}, {"size": "3"}, {"size": "1"}, {"size": "1"}]}}}, "dtype": {"type": "DT_FLOAT"}}}, {"name": "model_57/tf.nn.convolution_433/convolution/filter", "op": "Const", "attr": {"value": {"tensor": {"dtype": "DT_FLOAT", "tensorShape": {"dim": [{"size": "3"}, {"size": "3"}, {"size": "1"}, {"size": "1"}]}}}, "dtype": {"type": "DT_FLOAT"}}}, {"name": "model_57/tf.nn.convolution_434/convolution/filter", "op": "Const", "attr": {"value": {"tensor": {"dtype": "DT_FLOAT", "tensorShape": {"dim": [{"size": "3"}, {"size": "3"}, {"size": "1"}, {"size": "1"}]}}}, "dtype": {"type": "DT_FLOAT"}}}, {"name": "model_57/tf.nn.convolution_435/convolution/filter", "op": "Const", "attr": {"value": {"tensor": {"dtype": "DT_FLOAT", "tensorShape": {"dim": [{"size": "3"}, {"size": "3"}, {"size": "1"}, {"size": "1"}]}}}, "dtype": {"type": "DT_FLOAT"}}}, {"name": "model_57/tf.nn.convolution_436/convolution/filter", "op": "Const", "attr": {"value": {"tensor": {"dtype": "DT_FLOAT", "tensorShape": {"dim": [{"size": "3"}, {"size": "3"}, {"size": "1"}, {"size": "1"}]}}}, "dtype": {"type": "DT_FLOAT"}}}, {"name": "model_57/tf.nn.convolution_437/convolution/filter", "op": "Const", "attr": {"value": {"tensor": {"dtype": "DT_FLOAT", "tensorShape": {"dim": [{"size": "3"}, {"size": "3"}, {"size": "1"}, {"size": "1"}]}}}, "dtype": {"type": "DT_FLOAT"}}}, {"name": "model_57/tf.nn.convolution_438/convolution/filter", "op": "Const", "attr": {"value": {"tensor": {"dtype": "DT_FLOAT", "tensorShape": {"dim": [{"size": "3"}, {"size": "3"}, {"size": "1"}, {"size": "1"}]}}}, "dtype": {"type": "DT_FLOAT"}}}, {"name": "model_57/tf.nn.convolution_439/convolution/filter", "op": "Const", "attr": {"value": {"tensor": {"dtype": "DT_FLOAT", "tensorShape": {"dim": [{"size": "3"}, {"size": "3"}, {"size": "1"}, {"size": "1"}]}}}, "dtype": {"type": "DT_FLOAT"}}}, {"name": "model_57/tf.nn.convolution_440/convolution/filter", "op": "Const", "attr": {"value": {"tensor": {"dtype": "DT_FLOAT", "tensorShape": {"dim": [{"size": "3"}, {"size": "3"}, {"size": "1"}, {"size": "1"}]}}}, "dtype": {"type": "DT_FLOAT"}}}, {"name": "model_57/tf.nn.convolution_441/convolution/filter", "op": "Const", "attr": {"value": {"tensor": {"dtype": "DT_FLOAT", "tensorShape": {"dim": [{"size": "3"}, {"size": "3"}, {"size": "1"}, {"size": "1"}]}}}, "dtype": {"type": "DT_FLOAT"}}}, {"name": "model_57/tf.nn.convolution_442/convolution/filter", "op": "Const", "attr": {"value": {"tensor": {"dtype": "DT_FLOAT", "tensorShape": {"dim": [{"size": "3"}, {"size": "3"}, {"size": "1"}, {"size": "1"}]}}}, "dtype": {"type": "DT_FLOAT"}}}, {"name": "model_57/tf.nn.convolution_443/convolution/filter", "op": "Const", "attr": {"value": {"tensor": {"dtype": "DT_FLOAT", "tensorShape": {"dim": [{"size": "3"}, {"size": "3"}, {"size": "1"}, {"size": "1"}]}}}, "dtype": {"type": "DT_FLOAT"}}}, {"name": "model_57/tf.nn.convolution_444/convolution/filter", "op": "Const", "attr": {"value": {"tensor": {"dtype": "DT_FLOAT", "tensorShape": {"dim": [{"size": "3"}, {"size": "3"}, {"size": "1"}, {"size": "1"}]}}}, "dtype": {"type": "DT_FLOAT"}}}, {"name": "model_57/tf.nn.convolution_445/convolution/filter", "op": "Const", "attr": {"value": {"tensor": {"dtype": "DT_FLOAT", "tensorShape": {"dim": [{"size": "3"}, {"size": "3"}, {"size": "1"}, {"size": "1"}]}}}, "dtype": {"type": "DT_FLOAT"}}}, {"name": "model_57/tf.nn.convolution_446/convolution/filter", "op": "Const", "attr": {"value": {"tensor": {"dtype": "DT_FLOAT", "tensorShape": {"dim": [{"size": "3"}, {"size": "3"}, {"size": "1"}, {"size": "1"}]}}}, "dtype": {"type": "DT_FLOAT"}}}, {"name": "model_57/tf.nn.convolution_447/convolution/filter", "op": "Const", "attr": {"value": {"tensor": {"dtype": "DT_FLOAT", "tensorShape": {"dim": [{"size": "3"}, {"size": "3"}, {"size": "1"}, {"size": "1"}]}}}, "dtype": {"type": "DT_FLOAT"}}}, {"name": "model_57/tf.nn.convolution_448/convolution/filter", "op": "Const", "attr": {"value": {"tensor": {"dtype": "DT_FLOAT", "tensorShape": {"dim": [{"size": "3"}, {"size": "3"}, {"size": "1"}, {"size": "1"}]}}}, "dtype": {"type": "DT_FLOAT"}}}, {"name": "model_57/tf.nn.convolution_449/convolution/filter", "op": "Const", "attr": {"value": {"tensor": {"dtype": "DT_FLOAT", "tensorShape": {"dim": [{"size": "3"}, {"size": "3"}, {"size": "1"}, {"size": "1"}]}}}, "dtype": {"type": "DT_FLOAT"}}}, {"name": "model_57/tf.nn.convolution_450/convolution/filter", "op": "Const", "attr": {"value": {"tensor": {"dtype": "DT_FLOAT", "tensorShape": {"dim": [{"size": "3"}, {"size": "3"}, {"size": "1"}, {"size": "1"}]}}}, "dtype": {"type": "DT_FLOAT"}}}, {"name": "model_57/tf.nn.convolution_451/convolution/filter", "op": "Const", "attr": {"value": {"tensor": {"dtype": "DT_FLOAT", "tensorShape": {"dim": [{"size": "3"}, {"size": "3"}, {"size": "1"}, {"size": "1"}]}}}, "dtype": {"type": "DT_FLOAT"}}}, {"name": "model_57/tf.nn.convolution_452/convolution/filter", "op": "Const", "attr": {"value": {"tensor": {"dtype": "DT_FLOAT", "tensorShape": {"dim": [{"size": "3"}, {"size": "3"}, {"size": "1"}, {"size": "1"}]}}}, "dtype": {"type": "DT_FLOAT"}}}, {"name": "model_57/tf.nn.convolution_453/convolution/filter", "op": "Const", "attr": {"value": {"tensor": {"dtype": "DT_FLOAT", "tensorShape": {"dim": [{"size": "3"}, {"size": "3"}, {"size": "1"}, {"size": "1"}]}}}, "dtype": {"type": "DT_FLOAT"}}}, {"name": "model_57/tf.nn.convolution_454/convolution/filter", "op": "Const", "attr": {"value": {"tensor": {"dtype": "DT_FLOAT", "tensorShape": {"dim": [{"size": "3"}, {"size": "3"}, {"size": "1"}, {"size": "1"}]}}}, "dtype": {"type": "DT_FLOAT"}}}, {"name": "model_57/tf.nn.convolution_455/convolution/filter", "op": "Const", "attr": {"value": {"tensor": {"dtype": "DT_FLOAT", "tensorShape": {"dim": [{"size": "3"}, {"size": "3"}, {"size": "1"}, {"size": "1"}]}}}, "dtype": {"type": "DT_FLOAT"}}}, {"name": "model_57/tf.nn.convolution_456/convolution/filter", "op": "Const", "attr": {"value": {"tensor": {"dtype": "DT_FLOAT", "tensorShape": {"dim": [{"size": "3"}, {"size": "3"}, {"size": "1"}, {"size": "1"}]}}}, "dtype": {"type": "DT_FLOAT"}}}, {"name": "model_57/tf.nn.convolution_457/convolution/filter", "op": "Const", "attr": {"value": {"tensor": {"dtype": "DT_FLOAT", "tensorShape": {"dim": [{"size": "3"}, {"size": "3"}, {"size": "1"}, {"size": "1"}]}}}, "dtype": {"type": "DT_FLOAT"}}}, {"name": "model_57/tf.nn.convolution_458/convolution/filter", "op": "Const", "attr": {"value": {"tensor": {"dtype": "DT_FLOAT", "tensorShape": {"dim": [{"size": "3"}, {"size": "3"}, {"size": "1"}, {"size": "1"}]}}}, "dtype": {"type": "DT_FLOAT"}}}, {"name": "model_57/tf.nn.convolution_459/convolution/filter", "op": "Const", "attr": {"value": {"tensor": {"dtype": "DT_FLOAT", "tensorShape": {"dim": [{"size": "3"}, {"size": "3"}, {"size": "1"}, {"size": "1"}]}}}, "dtype": {"type": "DT_FLOAT"}}}, {"name": "model_57/tf.nn.convolution_460/convolution/filter", "op": "Const", "attr": {"value": {"tensor": {"dtype": "DT_FLOAT", "tensorShape": {"dim": [{"size": "3"}, {"size": "3"}, {"size": "1"}, {"size": "1"}]}}}, "dtype": {"type": "DT_FLOAT"}}}, {"name": "model_57/tf.nn.convolution_461/convolution/filter", "op": "Const", "attr": {"value": {"tensor": {"dtype": "DT_FLOAT", "tensorShape": {"dim": [{"size": "3"}, {"size": "3"}, {"size": "1"}, {"size": "1"}]}}}, "dtype": {"type": "DT_FLOAT"}}}, {"name": "model_57/tf.nn.convolution_462/convolution/filter", "op": "Const", "attr": {"value": {"tensor": {"dtype": "DT_FLOAT", "tensorShape": {"dim": [{"size": "3"}, {"size": "3"}, {"size": "1"}, {"size": "1"}]}}}, "dtype": {"type": "DT_FLOAT"}}}, {"name": "model_57/tf.nn.convolution_463/convolution/filter", "op": "Const", "attr": {"value": {"tensor": {"dtype": "DT_FLOAT", "tensorShape": {"dim": [{"size": "3"}, {"size": "3"}, {"size": "1"}, {"size": "1"}]}}}, "dtype": {"type": "DT_FLOAT"}}}, {"name": "model_57/tf.nn.convolution_464/convolution/filter", "op": "Const", "attr": {"value": {"tensor": {"dtype": "DT_FLOAT", "tensorShape": {"dim": [{"size": "3"}, {"size": "3"}, {"size": "1"}, {"size": "1"}]}}}, "dtype": {"type": "DT_FLOAT"}}}, {"name": "model_57/tf.nn.convolution_465/convolution/filter", "op": "Const", "attr": {"value": {"tensor": {"dtype": "DT_FLOAT", "tensorShape": {"dim": [{"size": "3"}, {"size": "3"}, {"size": "1"}, {"size": "1"}]}}}, "dtype": {"type": "DT_FLOAT"}}}, {"name": "model_57/tf.nn.convolution_466/convolution/filter", "op": "Const", "attr": {"value": {"tensor": {"dtype": "DT_FLOAT", "tensorShape": {"dim": [{"size": "3"}, {"size": "3"}, {"size": "1"}, {"size": "1"}]}}}, "dtype": {"type": "DT_FLOAT"}}}, {"name": "model_57/tf.nn.convolution_467/convolution/filter", "op": "Const", "attr": {"value": {"tensor": {"dtype": "DT_FLOAT", "tensorShape": {"dim": [{"size": "3"}, {"size": "3"}, {"size": "1"}, {"size": "1"}]}}}, "dtype": {"type": "DT_FLOAT"}}}, {"name": "model_57/tf.nn.convolution_468/convolution/filter", "op": "Const", "attr": {"value": {"tensor": {"dtype": "DT_FLOAT", "tensorShape": {"dim": [{"size": "3"}, {"size": "3"}, {"size": "1"}, {"size": "1"}]}}}, "dtype": {"type": "DT_FLOAT"}}}, {"name": "model_57/tf.nn.convolution_469/convolution/filter", "op": "Const", "attr": {"value": {"tensor": {"dtype": "DT_FLOAT", "tensorShape": {"dim": [{"size": "3"}, {"size": "3"}, {"size": "1"}, {"size": "1"}]}}}, "dtype": {"type": "DT_FLOAT"}}}, {"name": "model_57/tf.nn.convolution_470/convolution/filter", "op": "Const", "attr": {"value": {"tensor": {"dtype": "DT_FLOAT", "tensorShape": {"dim": [{"size": "3"}, {"size": "3"}, {"size": "1"}, {"size": "1"}]}}}, "dtype": {"type": "DT_FLOAT"}}}, {"name": "model_57/tf.nn.convolution_471/convolution/filter", "op": "Const", "attr": {"value": {"tensor": {"dtype": "DT_FLOAT", "tensorShape": {"dim": [{"size": "3"}, {"size": "3"}, {"size": "1"}, {"size": "1"}]}}}, "dtype": {"type": "DT_FLOAT"}}}, {"name": "model_57/tf.nn.convolution_472/convolution/filter", "op": "Const", "attr": {"value": {"tensor": {"dtype": "DT_FLOAT", "tensorShape": {"dim": [{"size": "3"}, {"size": "3"}, {"size": "1"}, {"size": "1"}]}}}, "dtype": {"type": "DT_FLOAT"}}}, {"name": "model_57/tf.nn.convolution_473/convolution/filter", "op": "Const", "attr": {"value": {"tensor": {"dtype": "DT_FLOAT", "tensorShape": {"dim": [{"size": "3"}, {"size": "3"}, {"size": "1"}, {"size": "1"}]}}}, "dtype": {"type": "DT_FLOAT"}}}, {"name": "model_57/tf.nn.convolution_474/convolution/filter", "op": "Const", "attr": {"value": {"tensor": {"dtype": "DT_FLOAT", "tensorShape": {"dim": [{"size": "3"}, {"size": "3"}, {"size": "1"}, {"size": "1"}]}}}, "dtype": {"type": "DT_FLOAT"}}}, {"name": "model_57/tf.nn.convolution_475/convolution/filter", "op": "Const", "attr": {"value": {"tensor": {"dtype": "DT_FLOAT", "tensorShape": {"dim": [{"size": "3"}, {"size": "3"}, {"size": "1"}, {"size": "1"}]}}}, "dtype": {"type": "DT_FLOAT"}}}, {"name": "model_57/tf.nn.convolution_476/convolution/filter", "op": "Const", "attr": {"value": {"tensor": {"dtype": "DT_FLOAT", "tensorShape": {"dim": [{"size": "3"}, {"size": "3"}, {"size": "1"}, {"size": "1"}]}}}, "dtype": {"type": "DT_FLOAT"}}}, {"name": "model_57/tf.nn.convolution_477/convolution/filter", "op": "Const", "attr": {"value": {"tensor": {"dtype": "DT_FLOAT", "tensorShape": {"dim": [{"size": "3"}, {"size": "3"}, {"size": "1"}, {"size": "1"}]}}}, "dtype": {"type": "DT_FLOAT"}}}, {"name": "model_57/tf.nn.convolution_478/convolution/filter", "op": "Const", "attr": {"value": {"tensor": {"dtype": "DT_FLOAT", "tensorShape": {"dim": [{"size": "3"}, {"size": "3"}, {"size": "1"}, {"size": "1"}]}}}, "dtype": {"type": "DT_FLOAT"}}}, {"name": "model_57/tf.nn.convolution_479/convolution/filter", "op": "Const", "attr": {"value": {"tensor": {"dtype": "DT_FLOAT", "tensorShape": {"dim": [{"size": "3"}, {"size": "3"}, {"size": "1"}, {"size": "1"}]}}}, "dtype": {"type": "DT_FLOAT"}}}, {"name": "model_57/tf.nn.convolution_480/convolution/filter", "op": "Const", "attr": {"value": {"tensor": {"dtype": "DT_FLOAT", "tensorShape": {"dim": [{"size": "3"}, {"size": "3"}, {"size": "1"}, {"size": "1"}]}}}, "dtype": {"type": "DT_FLOAT"}}}, {"name": "model_57/tf.nn.convolution_481/convolution/filter", "op": "Const", "attr": {"value": {"tensor": {"dtype": "DT_FLOAT", "tensorShape": {"dim": [{"size": "3"}, {"size": "3"}, {"size": "1"}, {"size": "1"}]}}}, "dtype": {"type": "DT_FLOAT"}}}, {"name": "model_57/tf.nn.convolution_482/convolution/filter", "op": "Const", "attr": {"value": {"tensor": {"dtype": "DT_FLOAT", "tensorShape": {"dim": [{"size": "3"}, {"size": "3"}, {"size": "1"}, {"size": "1"}]}}}, "dtype": {"type": "DT_FLOAT"}}}, {"name": "model_57/tf.nn.convolution_483/convolution/filter", "op": "Const", "attr": {"value": {"tensor": {"dtype": "DT_FLOAT", "tensorShape": {"dim": [{"size": "3"}, {"size": "3"}, {"size": "1"}, {"size": "1"}]}}}, "dtype": {"type": "DT_FLOAT"}}}, {"name": "model_57/tf.nn.convolution_484/convolution/filter", "op": "Const", "attr": {"value": {"tensor": {"dtype": "DT_FLOAT", "tensorShape": {"dim": [{"size": "3"}, {"size": "3"}, {"size": "1"}, {"size": "1"}]}}}, "dtype": {"type": "DT_FLOAT"}}}, {"name": "model_57/tf.nn.convolution_485/convolution/filter", "op": "Const", "attr": {"value": {"tensor": {"dtype": "DT_FLOAT", "tensorShape": {"dim": [{"size": "3"}, {"size": "3"}, {"size": "1"}, {"size": "1"}]}}}, "dtype": {"type": "DT_FLOAT"}}}, {"name": "model_57/tf.nn.convolution_486/convolution/filter", "op": "Const", "attr": {"value": {"tensor": {"dtype": "DT_FLOAT", "tensorShape": {"dim": [{"size": "3"}, {"size": "3"}, {"size": "1"}, {"size": "1"}]}}}, "dtype": {"type": "DT_FLOAT"}}}, {"name": "model_57/tf.nn.convolution_487/convolution/filter", "op": "Const", "attr": {"value": {"tensor": {"dtype": "DT_FLOAT", "tensorShape": {"dim": [{"size": "3"}, {"size": "3"}, {"size": "1"}, {"size": "1"}]}}}, "dtype": {"type": "DT_FLOAT"}}}, {"name": "model_57/tf.nn.convolution_488/convolution/filter", "op": "Const", "attr": {"value": {"tensor": {"dtype": "DT_FLOAT", "tensorShape": {"dim": [{"size": "3"}, {"size": "3"}, {"size": "1"}, {"size": "1"}]}}}, "dtype": {"type": "DT_FLOAT"}}}, {"name": "model_57/tf.nn.convolution_489/convolution/filter", "op": "Const", "attr": {"value": {"tensor": {"dtype": "DT_FLOAT", "tensorShape": {"dim": [{"size": "3"}, {"size": "3"}, {"size": "1"}, {"size": "1"}]}}}, "dtype": {"type": "DT_FLOAT"}}}, {"name": "model_57/tf.nn.convolution_490/convolution/filter", "op": "Const", "attr": {"value": {"tensor": {"dtype": "DT_FLOAT", "tensorShape": {"dim": [{"size": "3"}, {"size": "3"}, {"size": "1"}, {"size": "1"}]}}}, "dtype": {"type": "DT_FLOAT"}}}, {"name": "model_57/tf.nn.convolution_491/convolution/filter", "op": "Const", "attr": {"value": {"tensor": {"dtype": "DT_FLOAT", "tensorShape": {"dim": [{"size": "3"}, {"size": "3"}, {"size": "1"}, {"size": "1"}]}}}, "dtype": {"type": "DT_FLOAT"}}}, {"name": "model_57/tf.nn.convolution_492/convolution/filter", "op": "Const", "attr": {"value": {"tensor": {"dtype": "DT_FLOAT", "tensorShape": {"dim": [{"size": "3"}, {"size": "3"}, {"size": "1"}, {"size": "1"}]}}}, "dtype": {"type": "DT_FLOAT"}}}, {"name": "model_57/tf.nn.convolution_493/convolution/filter", "op": "Const", "attr": {"value": {"tensor": {"dtype": "DT_FLOAT", "tensorShape": {"dim": [{"size": "3"}, {"size": "3"}, {"size": "1"}, {"size": "1"}]}}}, "dtype": {"type": "DT_FLOAT"}}}, {"name": "model_57/tf.nn.convolution_494/convolution/filter", "op": "Const", "attr": {"value": {"tensor": {"dtype": "DT_FLOAT", "tensorShape": {"dim": [{"size": "3"}, {"size": "3"}, {"size": "1"}, {"size": "1"}]}}}, "dtype": {"type": "DT_FLOAT"}}}, {"name": "model_57/tf.nn.convolution_495/convolution/filter", "op": "Const", "attr": {"value": {"tensor": {"dtype": "DT_FLOAT", "tensorShape": {"dim": [{"size": "3"}, {"size": "3"}, {"size": "1"}, {"size": "1"}]}}}, "dtype": {"type": "DT_FLOAT"}}}, {"name": "model_57/tf.nn.convolution_496/convolution/filter", "op": "Const", "attr": {"value": {"tensor": {"dtype": "DT_FLOAT", "tensorShape": {"dim": [{"size": "3"}, {"size": "3"}, {"size": "1"}, {"size": "1"}]}}}, "dtype": {"type": "DT_FLOAT"}}}, {"name": "model_57/tf.nn.convolution_497/convolution/filter", "op": "Const", "attr": {"value": {"tensor": {"dtype": "DT_FLOAT", "tensorShape": {"dim": [{"size": "3"}, {"size": "3"}, {"size": "1"}, {"size": "1"}]}}}, "dtype": {"type": "DT_FLOAT"}}}, {"name": "model_57/tf.nn.convolution_498/convolution/filter", "op": "Const", "attr": {"value": {"tensor": {"dtype": "DT_FLOAT", "tensorShape": {"dim": [{"size": "3"}, {"size": "3"}, {"size": "1"}, {"size": "1"}]}}}, "dtype": {"type": "DT_FLOAT"}}}, {"name": "model_57/tf.nn.convolution_499/convolution/filter", "op": "Const", "attr": {"value": {"tensor": {"dtype": "DT_FLOAT", "tensorShape": {"dim": [{"size": "3"}, {"size": "3"}, {"size": "1"}, {"size": "1"}]}}}, "dtype": {"type": "DT_FLOAT"}}}, {"name": "model_57/tf.nn.convolution_500/convolution/filter", "op": "Const", "attr": {"value": {"tensor": {"dtype": "DT_FLOAT", "tensorShape": {"dim": [{"size": "3"}, {"size": "3"}, {"size": "1"}, {"size": "1"}]}}}, "dtype": {"type": "DT_FLOAT"}}}, {"name": "model_57/tf.nn.convolution_501/convolution/filter", "op": "Const", "attr": {"value": {"tensor": {"dtype": "DT_FLOAT", "tensorShape": {"dim": [{"size": "3"}, {"size": "3"}, {"size": "1"}, {"size": "1"}]}}}, "dtype": {"type": "DT_FLOAT"}}}, {"name": "model_57/tf.nn.convolution_502/convolution/filter", "op": "Const", "attr": {"value": {"tensor": {"dtype": "DT_FLOAT", "tensorShape": {"dim": [{"size": "3"}, {"size": "3"}, {"size": "1"}, {"size": "1"}]}}}, "dtype": {"type": "DT_FLOAT"}}}, {"name": "model_57/tf.nn.convolution_503/convolution/filter", "op": "Const", "attr": {"value": {"tensor": {"dtype": "DT_FLOAT", "tensorShape": {"dim": [{"size": "3"}, {"size": "3"}, {"size": "1"}, {"size": "1"}]}}}, "dtype": {"type": "DT_FLOAT"}}}, {"name": "model_57/tf.nn.convolution_504/convolution/filter", "op": "Const", "attr": {"value": {"tensor": {"dtype": "DT_FLOAT", "tensorShape": {"dim": [{"size": "3"}, {"size": "3"}, {"size": "1"}, {"size": "1"}]}}}, "dtype": {"type": "DT_FLOAT"}}}, {"name": "model_57/tf.nn.convolution_505/convolution/filter", "op": "Const", "attr": {"value": {"tensor": {"dtype": "DT_FLOAT", "tensorShape": {"dim": [{"size": "3"}, {"size": "3"}, {"size": "1"}, {"size": "1"}]}}}, "dtype": {"type": "DT_FLOAT"}}}, {"name": "model_57/tf.nn.convolution_506/convolution/filter", "op": "Const", "attr": {"value": {"tensor": {"dtype": "DT_FLOAT", "tensorShape": {"dim": [{"size": "3"}, {"size": "3"}, {"size": "1"}, {"size": "1"}]}}}, "dtype": {"type": "DT_FLOAT"}}}, {"name": "model_57/tf.nn.convolution_507/convolution/filter", "op": "Const", "attr": {"value": {"tensor": {"dtype": "DT_FLOAT", "tensorShape": {"dim": [{"size": "3"}, {"size": "3"}, {"size": "1"}, {"size": "1"}]}}}, "dtype": {"type": "DT_FLOAT"}}}, {"name": "model_57/tf.nn.convolution_508/convolution/filter", "op": "Const", "attr": {"value": {"tensor": {"dtype": "DT_FLOAT", "tensorShape": {"dim": [{"size": "3"}, {"size": "3"}, {"size": "1"}, {"size": "1"}]}}}, "dtype": {"type": "DT_FLOAT"}}}, {"name": "model_57/tf.nn.convolution_509/convolution/filter", "op": "Const", "attr": {"value": {"tensor": {"dtype": "DT_FLOAT", "tensorShape": {"dim": [{"size": "3"}, {"size": "3"}, {"size": "1"}, {"size": "1"}]}}}, "dtype": {"type": "DT_FLOAT"}}}, {"name": "model_57/tf.nn.convolution_510/convolution/filter", "op": "Const", "attr": {"value": {"tensor": {"dtype": "DT_FLOAT", "tensorShape": {"dim": [{"size": "3"}, {"size": "3"}, {"size": "1"}, {"size": "1"}]}}}, "dtype": {"type": "DT_FLOAT"}}}, {"name": "model_57/tf.nn.convolution_511/convolution/filter", "op": "Const", "attr": {"value": {"tensor": {"dtype": "DT_FLOAT", "tensorShape": {"dim": [{"size": "3"}, {"size": "3"}, {"size": "1"}, {"size": "1"}]}}}, "dtype": {"type": "DT_FLOAT"}}}, {"name": "model_57/tf.nn.convolution_512/convolution/filter", "op": "Const", "attr": {"value": {"tensor": {"dtype": "DT_FLOAT", "tensorShape": {"dim": [{"size": "3"}, {"size": "3"}, {"size": "1"}, {"size": "1"}]}}}, "dtype": {"type": "DT_FLOAT"}}}, {"name": "model_57/tf.nn.convolution_513/convolution/filter", "op": "Const", "attr": {"value": {"tensor": {"dtype": "DT_FLOAT", "tensorShape": {"dim": [{"size": "3"}, {"size": "3"}, {"size": "1"}, {"size": "1"}]}}}, "dtype": {"type": "DT_FLOAT"}}}, {"name": "model_57/tf.nn.convolution_514/convolution/filter", "op": "Const", "attr": {"value": {"tensor": {"dtype": "DT_FLOAT", "tensorShape": {"dim": [{"size": "3"}, {"size": "3"}, {"size": "1"}, {"size": "1"}]}}}, "dtype": {"type": "DT_FLOAT"}}}, {"name": "model_57/tf.nn.convolution_515/convolution/filter", "op": "Const", "attr": {"value": {"tensor": {"dtype": "DT_FLOAT", "tensorShape": {"dim": [{"size": "3"}, {"size": "3"}, {"size": "1"}, {"size": "1"}]}}}, "dtype": {"type": "DT_FLOAT"}}}, {"name": "model_57/tf.nn.convolution_516/convolution/filter", "op": "Const", "attr": {"value": {"tensor": {"dtype": "DT_FLOAT", "tensorShape": {"dim": [{"size": "3"}, {"size": "3"}, {"size": "1"}, {"size": "1"}]}}}, "dtype": {"type": "DT_FLOAT"}}}, {"name": "model_57/tf.nn.convolution_517/convolution/filter", "op": "Const", "attr": {"value": {"tensor": {"dtype": "DT_FLOAT", "tensorShape": {"dim": [{"size": "3"}, {"size": "3"}, {"size": "1"}, {"size": "1"}]}}}, "dtype": {"type": "DT_FLOAT"}}}, {"name": "model_57/tf.nn.convolution_518/convolution/filter", "op": "Const", "attr": {"value": {"tensor": {"dtype": "DT_FLOAT", "tensorShape": {"dim": [{"size": "3"}, {"size": "3"}, {"size": "1"}, {"size": "1"}]}}}, "dtype": {"type": "DT_FLOAT"}}}, {"name": "model_57/tf.nn.convolution_519/convolution/filter", "op": "Const", "attr": {"value": {"tensor": {"dtype": "DT_FLOAT", "tensorShape": {"dim": [{"size": "3"}, {"size": "3"}, {"size": "1"}, {"size": "1"}]}}}, "dtype": {"type": "DT_FLOAT"}}}, {"name": "model_57/tf.nn.convolution_520/convolution/filter", "op": "Const", "attr": {"value": {"tensor": {"dtype": "DT_FLOAT", "tensorShape": {"dim": [{"size": "3"}, {"size": "3"}, {"size": "1"}, {"size": "1"}]}}}, "dtype": {"type": "DT_FLOAT"}}}, {"name": "model_57/tf.nn.convolution_521/convolution/filter", "op": "Const", "attr": {"value": {"tensor": {"dtype": "DT_FLOAT", "tensorShape": {"dim": [{"size": "3"}, {"size": "3"}, {"size": "1"}, {"size": "1"}]}}}, "dtype": {"type": "DT_FLOAT"}}}, {"name": "model_57/tf.nn.convolution_522/convolution/filter", "op": "Const", "attr": {"value": {"tensor": {"dtype": "DT_FLOAT", "tensorShape": {"dim": [{"size": "3"}, {"size": "3"}, {"size": "1"}, {"size": "1"}]}}}, "dtype": {"type": "DT_FLOAT"}}}, {"name": "model_57/tf.nn.convolution_523/convolution/filter", "op": "Const", "attr": {"value": {"tensor": {"dtype": "DT_FLOAT", "tensorShape": {"dim": [{"size": "3"}, {"size": "3"}, {"size": "1"}, {"size": "1"}]}}}, "dtype": {"type": "DT_FLOAT"}}}, {"name": "model_57/tf.nn.convolution_524/convolution/filter", "op": "Const", "attr": {"value": {"tensor": {"dtype": "DT_FLOAT", "tensorShape": {"dim": [{"size": "3"}, {"size": "3"}, {"size": "1"}, {"size": "1"}]}}}, "dtype": {"type": "DT_FLOAT"}}}, {"name": "model_57/tf.nn.convolution_525/convolution/filter", "op": "Const", "attr": {"value": {"tensor": {"dtype": "DT_FLOAT", "tensorShape": {"dim": [{"size": "3"}, {"size": "3"}, {"size": "1"}, {"size": "1"}]}}}, "dtype": {"type": "DT_FLOAT"}}}, {"name": "model_57/tf.nn.convolution_526/convolution/filter", "op": "Const", "attr": {"value": {"tensor": {"dtype": "DT_FLOAT", "tensorShape": {"dim": [{"size": "3"}, {"size": "3"}, {"size": "1"}, {"size": "1"}]}}}, "dtype": {"type": "DT_FLOAT"}}}, {"name": "model_57/tf.nn.convolution_527/convolution/filter", "op": "Const", "attr": {"value": {"tensor": {"dtype": "DT_FLOAT", "tensorShape": {"dim": [{"size": "3"}, {"size": "3"}, {"size": "1"}, {"size": "1"}]}}}, "dtype": {"type": "DT_FLOAT"}}}, {"name": "model_57/tf.nn.convolution_528/convolution/filter", "op": "Const", "attr": {"value": {"tensor": {"dtype": "DT_FLOAT", "tensorShape": {"dim": [{"size": "3"}, {"size": "3"}, {"size": "1"}, {"size": "1"}]}}}, "dtype": {"type": "DT_FLOAT"}}}, {"name": "model_57/tf.nn.convolution_529/convolution/filter", "op": "Const", "attr": {"value": {"tensor": {"dtype": "DT_FLOAT", "tensorShape": {"dim": [{"size": "3"}, {"size": "3"}, {"size": "1"}, {"size": "1"}]}}}, "dtype": {"type": "DT_FLOAT"}}}, {"name": "model_57/tf.nn.convolution_530/convolution/filter", "op": "Const", "attr": {"value": {"tensor": {"dtype": "DT_FLOAT", "tensorShape": {"dim": [{"size": "3"}, {"size": "3"}, {"size": "1"}, {"size": "1"}]}}}, "dtype": {"type": "DT_FLOAT"}}}, {"name": "model_57/tf.nn.convolution_531/convolution/filter", "op": "Const", "attr": {"value": {"tensor": {"dtype": "DT_FLOAT", "tensorShape": {"dim": [{"size": "3"}, {"size": "3"}, {"size": "1"}, {"size": "1"}]}}}, "dtype": {"type": "DT_FLOAT"}}}, {"name": "model_57/tf.nn.convolution_532/convolution/filter", "op": "Const", "attr": {"value": {"tensor": {"dtype": "DT_FLOAT", "tensorShape": {"dim": [{"size": "3"}, {"size": "3"}, {"size": "1"}, {"size": "1"}]}}}, "dtype": {"type": "DT_FLOAT"}}}, {"name": "model_57/tf.nn.convolution_533/convolution/filter", "op": "Const", "attr": {"value": {"tensor": {"dtype": "DT_FLOAT", "tensorShape": {"dim": [{"size": "3"}, {"size": "3"}, {"size": "1"}, {"size": "1"}]}}}, "dtype": {"type": "DT_FLOAT"}}}, {"name": "model_57/tf.nn.convolution_534/convolution/filter", "op": "Const", "attr": {"value": {"tensor": {"dtype": "DT_FLOAT", "tensorShape": {"dim": [{"size": "3"}, {"size": "3"}, {"size": "1"}, {"size": "1"}]}}}, "dtype": {"type": "DT_FLOAT"}}}, {"name": "model_57/tf.nn.convolution_535/convolution/filter", "op": "Const", "attr": {"value": {"tensor": {"dtype": "DT_FLOAT", "tensorShape": {"dim": [{"size": "3"}, {"size": "3"}, {"size": "1"}, {"size": "1"}]}}}, "dtype": {"type": "DT_FLOAT"}}}, {"name": "model_57/tf.nn.convolution_536/convolution/filter", "op": "Const", "attr": {"value": {"tensor": {"dtype": "DT_FLOAT", "tensorShape": {"dim": [{"size": "3"}, {"size": "3"}, {"size": "1"}, {"size": "1"}]}}}, "dtype": {"type": "DT_FLOAT"}}}, {"name": "model_57/tf.nn.convolution_537/convolution/filter", "op": "Const", "attr": {"value": {"tensor": {"dtype": "DT_FLOAT", "tensorShape": {"dim": [{"size": "3"}, {"size": "3"}, {"size": "1"}, {"size": "1"}]}}}, "dtype": {"type": "DT_FLOAT"}}}, {"name": "model_57/tf.nn.convolution_538/convolution/filter", "op": "Const", "attr": {"value": {"tensor": {"dtype": "DT_FLOAT", "tensorShape": {"dim": [{"size": "3"}, {"size": "3"}, {"size": "1"}, {"size": "1"}]}}}, "dtype": {"type": "DT_FLOAT"}}}, {"name": "model_57/tf.nn.convolution_539/convolution/filter", "op": "Const", "attr": {"value": {"tensor": {"dtype": "DT_FLOAT", "tensorShape": {"dim": [{"size": "3"}, {"size": "3"}, {"size": "1"}, {"size": "1"}]}}}, "dtype": {"type": "DT_FLOAT"}}}, {"name": "model_57/tf.nn.convolution_540/convolution/filter", "op": "Const", "attr": {"value": {"tensor": {"dtype": "DT_FLOAT", "tensorShape": {"dim": [{"size": "3"}, {"size": "3"}, {"size": "1"}, {"size": "1"}]}}}, "dtype": {"type": "DT_FLOAT"}}}, {"name": "model_57/tf.nn.convolution_541/convolution/filter", "op": "Const", "attr": {"value": {"tensor": {"dtype": "DT_FLOAT", "tensorShape": {"dim": [{"size": "3"}, {"size": "3"}, {"size": "1"}, {"size": "1"}]}}}, "dtype": {"type": "DT_FLOAT"}}}, {"name": "model_57/tf.nn.convolution_542/convolution/filter", "op": "Const", "attr": {"value": {"tensor": {"dtype": "DT_FLOAT", "tensorShape": {"dim": [{"size": "3"}, {"size": "3"}, {"size": "1"}, {"size": "1"}]}}}, "dtype": {"type": "DT_FLOAT"}}}, {"name": "model_57/tf.nn.convolution_543/convolution/filter", "op": "Const", "attr": {"value": {"tensor": {"dtype": "DT_FLOAT", "tensorShape": {"dim": [{"size": "3"}, {"size": "3"}, {"size": "1"}, {"size": "1"}]}}}, "dtype": {"type": "DT_FLOAT"}}}, {"name": "model_57/tf.nn.convolution_544/convolution/filter", "op": "Const", "attr": {"value": {"tensor": {"dtype": "DT_FLOAT", "tensorShape": {"dim": [{"size": "3"}, {"size": "3"}, {"size": "1"}, {"size": "1"}]}}}, "dtype": {"type": "DT_FLOAT"}}}, {"name": "model_57/tf.nn.convolution_545/convolution/filter", "op": "Const", "attr": {"value": {"tensor": {"dtype": "DT_FLOAT", "tensorShape": {"dim": [{"size": "3"}, {"size": "3"}, {"size": "1"}, {"size": "1"}]}}}, "dtype": {"type": "DT_FLOAT"}}}, {"name": "model_57/tf.nn.convolution_546/convolution/filter", "op": "Const", "attr": {"value": {"tensor": {"dtype": "DT_FLOAT", "tensorShape": {"dim": [{"size": "3"}, {"size": "3"}, {"size": "1"}, {"size": "1"}]}}}, "dtype": {"type": "DT_FLOAT"}}}, {"name": "model_57/tf.nn.convolution_547/convolution/filter", "op": "Const", "attr": {"value": {"tensor": {"dtype": "DT_FLOAT", "tensorShape": {"dim": [{"size": "3"}, {"size": "3"}, {"size": "1"}, {"size": "1"}]}}}, "dtype": {"type": "DT_FLOAT"}}}, {"name": "model_57/tf.nn.convolution_548/convolution/filter", "op": "Const", "attr": {"value": {"tensor": {"dtype": "DT_FLOAT", "tensorShape": {"dim": [{"size": "3"}, {"size": "3"}, {"size": "1"}, {"size": "1"}]}}}, "dtype": {"type": "DT_FLOAT"}}}, {"name": "model_57/tf.nn.convolution_549/convolution/filter", "op": "Const", "attr": {"value": {"tensor": {"dtype": "DT_FLOAT", "tensorShape": {"dim": [{"size": "3"}, {"size": "3"}, {"size": "1"}, {"size": "1"}]}}}, "dtype": {"type": "DT_FLOAT"}}}, {"name": "model_57/tf.nn.convolution_550/convolution/filter", "op": "Const", "attr": {"value": {"tensor": {"dtype": "DT_FLOAT", "tensorShape": {"dim": [{"size": "3"}, {"size": "3"}, {"size": "1"}, {"size": "1"}]}}}, "dtype": {"type": "DT_FLOAT"}}}, {"name": "model_57/tf.nn.convolution_551/convolution/filter", "op": "Const", "attr": {"value": {"tensor": {"dtype": "DT_FLOAT", "tensorShape": {"dim": [{"size": "3"}, {"size": "3"}, {"size": "1"}, {"size": "1"}]}}}, "dtype": {"type": "DT_FLOAT"}}}, {"name": "model_57/tf.nn.convolution_552/convolution/filter", "op": "Const", "attr": {"value": {"tensor": {"dtype": "DT_FLOAT", "tensorShape": {"dim": [{"size": "3"}, {"size": "3"}, {"size": "1"}, {"size": "1"}]}}}, "dtype": {"type": "DT_FLOAT"}}}, {"name": "model_57/tf.nn.convolution_553/convolution/filter", "op": "Const", "attr": {"value": {"tensor": {"dtype": "DT_FLOAT", "tensorShape": {"dim": [{"size": "3"}, {"size": "3"}, {"size": "1"}, {"size": "1"}]}}}, "dtype": {"type": "DT_FLOAT"}}}, {"name": "model_57/tf.nn.convolution_554/convolution/filter", "op": "Const", "attr": {"value": {"tensor": {"dtype": "DT_FLOAT", "tensorShape": {"dim": [{"size": "3"}, {"size": "3"}, {"size": "1"}, {"size": "1"}]}}}, "dtype": {"type": "DT_FLOAT"}}}, {"name": "model_57/tf.nn.convolution_555/convolution/filter", "op": "Const", "attr": {"value": {"tensor": {"dtype": "DT_FLOAT", "tensorShape": {"dim": [{"size": "3"}, {"size": "3"}, {"size": "1"}, {"size": "1"}]}}}, "dtype": {"type": "DT_FLOAT"}}}, {"name": "model_57/tf.nn.convolution_556/convolution/filter", "op": "Const", "attr": {"value": {"tensor": {"dtype": "DT_FLOAT", "tensorShape": {"dim": [{"size": "3"}, {"size": "3"}, {"size": "1"}, {"size": "1"}]}}}, "dtype": {"type": "DT_FLOAT"}}}, {"name": "model_57/tf.nn.convolution_557/convolution/filter", "op": "Const", "attr": {"value": {"tensor": {"dtype": "DT_FLOAT", "tensorShape": {"dim": [{"size": "3"}, {"size": "3"}, {"size": "1"}, {"size": "1"}]}}}, "dtype": {"type": "DT_FLOAT"}}}, {"name": "model_57/tf.nn.convolution_558/convolution/filter", "op": "Const", "attr": {"value": {"tensor": {"dtype": "DT_FLOAT", "tensorShape": {"dim": [{"size": "3"}, {"size": "3"}, {"size": "1"}, {"size": "1"}]}}}, "dtype": {"type": "DT_FLOAT"}}}, {"name": "model_57/tf.nn.convolution_559/convolution/filter", "op": "Const", "attr": {"value": {"tensor": {"dtype": "DT_FLOAT", "tensorShape": {"dim": [{"size": "3"}, {"size": "3"}, {"size": "1"}, {"size": "1"}]}}}, "dtype": {"type": "DT_FLOAT"}}}, {"name": "model_57/tf.nn.convolution_560/convolution/filter", "op": "Const", "attr": {"value": {"tensor": {"dtype": "DT_FLOAT", "tensorShape": {"dim": [{"size": "3"}, {"size": "3"}, {"size": "1"}, {"size": "1"}]}}}, "dtype": {"type": "DT_FLOAT"}}}, {"name": "model_57/tf.nn.convolution_561/convolution/filter", "op": "Const", "attr": {"value": {"tensor": {"dtype": "DT_FLOAT", "tensorShape": {"dim": [{"size": "3"}, {"size": "3"}, {"size": "1"}, {"size": "1"}]}}}, "dtype": {"type": "DT_FLOAT"}}}, {"name": "model_57/tf.nn.convolution_562/convolution/filter", "op": "Const", "attr": {"value": {"tensor": {"dtype": "DT_FLOAT", "tensorShape": {"dim": [{"size": "3"}, {"size": "3"}, {"size": "1"}, {"size": "1"}]}}}, "dtype": {"type": "DT_FLOAT"}}}, {"name": "model_57/tf.nn.convolution_563/convolution/filter", "op": "Const", "attr": {"value": {"tensor": {"dtype": "DT_FLOAT", "tensorShape": {"dim": [{"size": "3"}, {"size": "3"}, {"size": "1"}, {"size": "1"}]}}}, "dtype": {"type": "DT_FLOAT"}}}, {"name": "model_57/tf.nn.convolution_564/convolution/filter", "op": "Const", "attr": {"value": {"tensor": {"dtype": "DT_FLOAT", "tensorShape": {"dim": [{"size": "3"}, {"size": "3"}, {"size": "1"}, {"size": "1"}]}}}, "dtype": {"type": "DT_FLOAT"}}}, {"name": "model_57/tf.nn.convolution_565/convolution/filter", "op": "Const", "attr": {"value": {"tensor": {"dtype": "DT_FLOAT", "tensorShape": {"dim": [{"size": "3"}, {"size": "3"}, {"size": "1"}, {"size": "1"}]}}}, "dtype": {"type": "DT_FLOAT"}}}, {"name": "model_57/tf.nn.convolution_566/convolution/filter", "op": "Const", "attr": {"value": {"tensor": {"dtype": "DT_FLOAT", "tensorShape": {"dim": [{"size": "3"}, {"size": "3"}, {"size": "1"}, {"size": "1"}]}}}, "dtype": {"type": "DT_FLOAT"}}}, {"name": "model_57/tf.nn.convolution_567/convolution/filter", "op": "Const", "attr": {"value": {"tensor": {"dtype": "DT_FLOAT", "tensorShape": {"dim": [{"size": "3"}, {"size": "3"}, {"size": "1"}, {"size": "1"}]}}}, "dtype": {"type": "DT_FLOAT"}}}, {"name": "model_57/tf.nn.convolution_568/convolution/filter", "op": "Const", "attr": {"value": {"tensor": {"dtype": "DT_FLOAT", "tensorShape": {"dim": [{"size": "3"}, {"size": "3"}, {"size": "1"}, {"size": "1"}]}}}, "dtype": {"type": "DT_FLOAT"}}}, {"name": "model_57/tf.nn.convolution_569/convolution/filter", "op": "Const", "attr": {"value": {"tensor": {"dtype": "DT_FLOAT", "tensorShape": {"dim": [{"size": "3"}, {"size": "3"}, {"size": "1"}, {"size": "1"}]}}}, "dtype": {"type": "DT_FLOAT"}}}, {"name": "model_57/tf.nn.convolution_570/convolution/filter", "op": "Const", "attr": {"value": {"tensor": {"dtype": "DT_FLOAT", "tensorShape": {"dim": [{"size": "3"}, {"size": "3"}, {"size": "1"}, {"size": "1"}]}}}, "dtype": {"type": "DT_FLOAT"}}}, {"name": "model_57/tf.nn.convolution_571/convolution/filter", "op": "Const", "attr": {"value": {"tensor": {"dtype": "DT_FLOAT", "tensorShape": {"dim": [{"size": "3"}, {"size": "3"}, {"size": "1"}, {"size": "1"}]}}}, "dtype": {"type": "DT_FLOAT"}}}, {"name": "model_57/tf.nn.convolution_572/convolution/filter", "op": "Const", "attr": {"value": {"tensor": {"dtype": "DT_FLOAT", "tensorShape": {"dim": [{"size": "3"}, {"size": "3"}, {"size": "1"}, {"size": "1"}]}}}, "dtype": {"type": "DT_FLOAT"}}}, {"name": "model_57/tf.nn.convolution_573/convolution/filter", "op": "Const", "attr": {"value": {"tensor": {"dtype": "DT_FLOAT", "tensorShape": {"dim": [{"size": "3"}, {"size": "3"}, {"size": "1"}, {"size": "1"}]}}}, "dtype": {"type": "DT_FLOAT"}}}, {"name": "model_57/tf.nn.convolution_574/convolution/filter", "op": "Const", "attr": {"value": {"tensor": {"dtype": "DT_FLOAT", "tensorShape": {"dim": [{"size": "3"}, {"size": "3"}, {"size": "1"}, {"size": "1"}]}}}, "dtype": {"type": "DT_FLOAT"}}}, {"name": "model_57/tf.nn.convolution_575/convolution/filter", "op": "Const", "attr": {"value": {"tensor": {"dtype": "DT_FLOAT", "tensorShape": {"dim": [{"size": "3"}, {"size": "3"}, {"size": "1"}, {"size": "1"}]}}}, "dtype": {"type": "DT_FLOAT"}}}, {"name": "model_57/tf.nn.convolution_576/convolution/filter", "op": "Const", "attr": {"value": {"tensor": {"dtype": "DT_FLOAT", "tensorShape": {"dim": [{"size": "3"}, {"size": "3"}, {"size": "1"}, {"size": "1"}]}}}, "dtype": {"type": "DT_FLOAT"}}}, {"name": "model_57/tf.nn.convolution_577/convolution/filter", "op": "Const", "attr": {"value": {"tensor": {"dtype": "DT_FLOAT", "tensorShape": {"dim": [{"size": "3"}, {"size": "3"}, {"size": "1"}, {"size": "1"}]}}}, "dtype": {"type": "DT_FLOAT"}}}, {"name": "model_57/tf.nn.convolution_578/convolution/filter", "op": "Const", "attr": {"value": {"tensor": {"dtype": "DT_FLOAT", "tensorShape": {"dim": [{"size": "3"}, {"size": "3"}, {"size": "1"}, {"size": "1"}]}}}, "dtype": {"type": "DT_FLOAT"}}}, {"name": "model_57/tf.nn.convolution_579/convolution/filter", "op": "Const", "attr": {"value": {"tensor": {"dtype": "DT_FLOAT", "tensorShape": {"dim": [{"size": "3"}, {"size": "3"}, {"size": "1"}, {"size": "1"}]}}}, "dtype": {"type": "DT_FLOAT"}}}, {"name": "model_57/tf.nn.convolution_580/convolution/filter", "op": "Const", "attr": {"value": {"tensor": {"dtype": "DT_FLOAT", "tensorShape": {"dim": [{"size": "3"}, {"size": "3"}, {"size": "1"}, {"size": "1"}]}}}, "dtype": {"type": "DT_FLOAT"}}}, {"name": "model_57/tf.nn.convolution_581/convolution/filter", "op": "Const", "attr": {"value": {"tensor": {"dtype": "DT_FLOAT", "tensorShape": {"dim": [{"size": "3"}, {"size": "3"}, {"size": "1"}, {"size": "1"}]}}}, "dtype": {"type": "DT_FLOAT"}}}, {"name": "model_57/tf.nn.convolution_582/convolution/filter", "op": "Const", "attr": {"value": {"tensor": {"dtype": "DT_FLOAT", "tensorShape": {"dim": [{"size": "3"}, {"size": "3"}, {"size": "1"}, {"size": "1"}]}}}, "dtype": {"type": "DT_FLOAT"}}}, {"name": "model_57/tf.nn.convolution_583/convolution/filter", "op": "Const", "attr": {"value": {"tensor": {"dtype": "DT_FLOAT", "tensorShape": {"dim": [{"size": "3"}, {"size": "3"}, {"size": "1"}, {"size": "1"}]}}}, "dtype": {"type": "DT_FLOAT"}}}, {"name": "model_57/tf.nn.convolution_584/convolution/filter", "op": "Const", "attr": {"value": {"tensor": {"dtype": "DT_FLOAT", "tensorShape": {"dim": [{"size": "3"}, {"size": "3"}, {"size": "1"}, {"size": "1"}]}}}, "dtype": {"type": "DT_FLOAT"}}}, {"name": "model_57/tf.nn.convolution_585/convolution/filter", "op": "Const", "attr": {"value": {"tensor": {"dtype": "DT_FLOAT", "tensorShape": {"dim": [{"size": "3"}, {"size": "3"}, {"size": "1"}, {"size": "1"}]}}}, "dtype": {"type": "DT_FLOAT"}}}, {"name": "model_57/tf.nn.convolution_586/convolution/filter", "op": "Const", "attr": {"value": {"tensor": {"dtype": "DT_FLOAT", "tensorShape": {"dim": [{"size": "3"}, {"size": "3"}, {"size": "1"}, {"size": "1"}]}}}, "dtype": {"type": "DT_FLOAT"}}}, {"name": "model_57/tf.nn.convolution_587/convolution/filter", "op": "Const", "attr": {"value": {"tensor": {"dtype": "DT_FLOAT", "tensorShape": {"dim": [{"size": "3"}, {"size": "3"}, {"size": "1"}, {"size": "1"}]}}}, "dtype": {"type": "DT_FLOAT"}}}, {"name": "model_57/tf.nn.convolution_588/convolution/filter", "op": "Const", "attr": {"value": {"tensor": {"dtype": "DT_FLOAT", "tensorShape": {"dim": [{"size": "3"}, {"size": "3"}, {"size": "1"}, {"size": "1"}]}}}, "dtype": {"type": "DT_FLOAT"}}}, {"name": "model_57/tf.nn.convolution_589/convolution/filter", "op": "Const", "attr": {"value": {"tensor": {"dtype": "DT_FLOAT", "tensorShape": {"dim": [{"size": "3"}, {"size": "3"}, {"size": "1"}, {"size": "1"}]}}}, "dtype": {"type": "DT_FLOAT"}}}, {"name": "model_57/tf.nn.convolution_590/convolution/filter", "op": "Const", "attr": {"value": {"tensor": {"dtype": "DT_FLOAT", "tensorShape": {"dim": [{"size": "3"}, {"size": "3"}, {"size": "1"}, {"size": "1"}]}}}, "dtype": {"type": "DT_FLOAT"}}}, {"name": "model_57/tf.nn.convolution_591/convolution/filter", "op": "Const", "attr": {"value": {"tensor": {"dtype": "DT_FLOAT", "tensorShape": {"dim": [{"size": "3"}, {"size": "3"}, {"size": "1"}, {"size": "1"}]}}}, "dtype": {"type": "DT_FLOAT"}}}, {"name": "model_57/tf.nn.convolution_592/convolution/filter", "op": "Const", "attr": {"value": {"tensor": {"dtype": "DT_FLOAT", "tensorShape": {"dim": [{"size": "3"}, {"size": "3"}, {"size": "1"}, {"size": "1"}]}}}, "dtype": {"type": "DT_FLOAT"}}}, {"name": "model_57/tf.nn.convolution_593/convolution/filter", "op": "Const", "attr": {"value": {"tensor": {"dtype": "DT_FLOAT", "tensorShape": {"dim": [{"size": "3"}, {"size": "3"}, {"size": "1"}, {"size": "1"}]}}}, "dtype": {"type": "DT_FLOAT"}}}, {"name": "model_57/tf.nn.convolution_594/convolution/filter", "op": "Const", "attr": {"value": {"tensor": {"dtype": "DT_FLOAT", "tensorShape": {"dim": [{"size": "3"}, {"size": "3"}, {"size": "1"}, {"size": "1"}]}}}, "dtype": {"type": "DT_FLOAT"}}}, {"name": "model_57/tf.nn.convolution_595/convolution/filter", "op": "Const", "attr": {"value": {"tensor": {"dtype": "DT_FLOAT", "tensorShape": {"dim": [{"size": "3"}, {"size": "3"}, {"size": "1"}, {"size": "1"}]}}}, "dtype": {"type": "DT_FLOAT"}}}, {"name": "model_57/tf.nn.convolution_596/convolution/filter", "op": "Const", "attr": {"value": {"tensor": {"dtype": "DT_FLOAT", "tensorShape": {"dim": [{"size": "3"}, {"size": "3"}, {"size": "1"}, {"size": "1"}]}}}, "dtype": {"type": "DT_FLOAT"}}}, {"name": "model_57/tf.nn.convolution_597/convolution/filter", "op": "Const", "attr": {"value": {"tensor": {"dtype": "DT_FLOAT", "tensorShape": {"dim": [{"size": "3"}, {"size": "3"}, {"size": "1"}, {"size": "1"}]}}}, "dtype": {"type": "DT_FLOAT"}}}, {"name": "model_57/tf.nn.convolution_598/convolution/filter", "op": "Const", "attr": {"value": {"tensor": {"dtype": "DT_FLOAT", "tensorShape": {"dim": [{"size": "3"}, {"size": "3"}, {"size": "1"}, {"size": "1"}]}}}, "dtype": {"type": "DT_FLOAT"}}}, {"name": "model_57/tf.nn.convolution_599/convolution/filter", "op": "Const", "attr": {"value": {"tensor": {"dtype": "DT_FLOAT", "tensorShape": {"dim": [{"size": "3"}, {"size": "3"}, {"size": "1"}, {"size": "1"}]}}}, "dtype": {"type": "DT_FLOAT"}}}, {"name": "model_57/tf.nn.convolution_600/convolution/filter", "op": "Const", "attr": {"value": {"tensor": {"dtype": "DT_FLOAT", "tensorShape": {"dim": [{"size": "3"}, {"size": "3"}, {"size": "1"}, {"size": "1"}]}}}, "dtype": {"type": "DT_FLOAT"}}}, {"name": "model_57/tf.nn.convolution_601/convolution/filter", "op": "Const", "attr": {"value": {"tensor": {"dtype": "DT_FLOAT", "tensorShape": {"dim": [{"size": "3"}, {"size": "3"}, {"size": "1"}, {"size": "1"}]}}}, "dtype": {"type": "DT_FLOAT"}}}, {"name": "model_57/tf.nn.convolution_602/convolution/filter", "op": "Const", "attr": {"value": {"tensor": {"dtype": "DT_FLOAT", "tensorShape": {"dim": [{"size": "3"}, {"size": "3"}, {"size": "1"}, {"size": "1"}]}}}, "dtype": {"type": "DT_FLOAT"}}}, {"name": "model_57/tf.nn.convolution_603/convolution/filter", "op": "Const", "attr": {"value": {"tensor": {"dtype": "DT_FLOAT", "tensorShape": {"dim": [{"size": "3"}, {"size": "3"}, {"size": "1"}, {"size": "1"}]}}}, "dtype": {"type": "DT_FLOAT"}}}, {"name": "model_57/tf.nn.convolution_604/convolution/filter", "op": "Const", "attr": {"value": {"tensor": {"dtype": "DT_FLOAT", "tensorShape": {"dim": [{"size": "3"}, {"size": "3"}, {"size": "1"}, {"size": "1"}]}}}, "dtype": {"type": "DT_FLOAT"}}}, {"name": "model_57/tf.nn.convolution_605/convolution/filter", "op": "Const", "attr": {"value": {"tensor": {"dtype": "DT_FLOAT", "tensorShape": {"dim": [{"size": "3"}, {"size": "3"}, {"size": "1"}, {"size": "1"}]}}}, "dtype": {"type": "DT_FLOAT"}}}, {"name": "model_57/tf.nn.convolution_606/convolution/filter", "op": "Const", "attr": {"value": {"tensor": {"dtype": "DT_FLOAT", "tensorShape": {"dim": [{"size": "3"}, {"size": "3"}, {"size": "1"}, {"size": "1"}]}}}, "dtype": {"type": "DT_FLOAT"}}}, {"name": "model_57/tf.nn.convolution_607/convolution/filter", "op": "Const", "attr": {"value": {"tensor": {"dtype": "DT_FLOAT", "tensorShape": {"dim": [{"size": "3"}, {"size": "3"}, {"size": "1"}, {"size": "1"}]}}}, "dtype": {"type": "DT_FLOAT"}}}, {"name": "model_57/tf.nn.convolution_608/convolution/filter", "op": "Const", "attr": {"value": {"tensor": {"dtype": "DT_FLOAT", "tensorShape": {"dim": [{"size": "3"}, {"size": "3"}, {"size": "1"}, {"size": "1"}]}}}, "dtype": {"type": "DT_FLOAT"}}}, {"name": "model_57/tf.nn.convolution_609/convolution/filter", "op": "Const", "attr": {"value": {"tensor": {"dtype": "DT_FLOAT", "tensorShape": {"dim": [{"size": "3"}, {"size": "3"}, {"size": "1"}, {"size": "1"}]}}}, "dtype": {"type": "DT_FLOAT"}}}, {"name": "model_57/tf.nn.convolution_610/convolution/filter", "op": "Const", "attr": {"value": {"tensor": {"dtype": "DT_FLOAT", "tensorShape": {"dim": [{"size": "3"}, {"size": "3"}, {"size": "1"}, {"size": "1"}]}}}, "dtype": {"type": "DT_FLOAT"}}}, {"name": "model_57/tf.nn.convolution_611/convolution/filter", "op": "Const", "attr": {"value": {"tensor": {"dtype": "DT_FLOAT", "tensorShape": {"dim": [{"size": "3"}, {"size": "3"}, {"size": "1"}, {"size": "1"}]}}}, "dtype": {"type": "DT_FLOAT"}}}, {"name": "model_57/tf.nn.convolution_612/convolution/filter", "op": "Const", "attr": {"value": {"tensor": {"dtype": "DT_FLOAT", "tensorShape": {"dim": [{"size": "3"}, {"size": "3"}, {"size": "1"}, {"size": "1"}]}}}, "dtype": {"type": "DT_FLOAT"}}}, {"name": "model_57/tf.nn.convolution_613/convolution/filter", "op": "Const", "attr": {"value": {"tensor": {"dtype": "DT_FLOAT", "tensorShape": {"dim": [{"size": "3"}, {"size": "3"}, {"size": "1"}, {"size": "1"}]}}}, "dtype": {"type": "DT_FLOAT"}}}, {"name": "model_57/tf.nn.convolution_614/convolution/filter", "op": "Const", "attr": {"value": {"tensor": {"dtype": "DT_FLOAT", "tensorShape": {"dim": [{"size": "3"}, {"size": "3"}, {"size": "1"}, {"size": "1"}]}}}, "dtype": {"type": "DT_FLOAT"}}}, {"name": "model_57/tf.nn.convolution_615/convolution/filter", "op": "Const", "attr": {"value": {"tensor": {"dtype": "DT_FLOAT", "tensorShape": {"dim": [{"size": "3"}, {"size": "3"}, {"size": "1"}, {"size": "1"}]}}}, "dtype": {"type": "DT_FLOAT"}}}, {"name": "model_57/tf.nn.convolution_616/convolution/filter", "op": "Const", "attr": {"value": {"tensor": {"dtype": "DT_FLOAT", "tensorShape": {"dim": [{"size": "3"}, {"size": "3"}, {"size": "1"}, {"size": "1"}]}}}, "dtype": {"type": "DT_FLOAT"}}}, {"name": "model_57/tf.nn.convolution_617/convolution/filter", "op": "Const", "attr": {"value": {"tensor": {"dtype": "DT_FLOAT", "tensorShape": {"dim": [{"size": "3"}, {"size": "3"}, {"size": "1"}, {"size": "1"}]}}}, "dtype": {"type": "DT_FLOAT"}}}, {"name": "model_57/tf.nn.convolution_618/convolution/filter", "op": "Const", "attr": {"value": {"tensor": {"dtype": "DT_FLOAT", "tensorShape": {"dim": [{"size": "3"}, {"size": "3"}, {"size": "1"}, {"size": "1"}]}}}, "dtype": {"type": "DT_FLOAT"}}}, {"name": "model_57/tf.nn.convolution_619/convolution/filter", "op": "Const", "attr": {"value": {"tensor": {"dtype": "DT_FLOAT", "tensorShape": {"dim": [{"size": "3"}, {"size": "3"}, {"size": "1"}, {"size": "1"}]}}}, "dtype": {"type": "DT_FLOAT"}}}, {"name": "model_57/tf.nn.convolution_620/convolution/filter", "op": "Const", "attr": {"value": {"tensor": {"dtype": "DT_FLOAT", "tensorShape": {"dim": [{"size": "3"}, {"size": "3"}, {"size": "1"}, {"size": "1"}]}}}, "dtype": {"type": "DT_FLOAT"}}}, {"name": "model_57/tf.nn.convolution_621/convolution/filter", "op": "Const", "attr": {"value": {"tensor": {"dtype": "DT_FLOAT", "tensorShape": {"dim": [{"size": "3"}, {"size": "3"}, {"size": "1"}, {"size": "1"}]}}}, "dtype": {"type": "DT_FLOAT"}}}, {"name": "model_57/tf.nn.convolution_622/convolution/filter", "op": "Const", "attr": {"value": {"tensor": {"dtype": "DT_FLOAT", "tensorShape": {"dim": [{"size": "3"}, {"size": "3"}, {"size": "1"}, {"size": "1"}]}}}, "dtype": {"type": "DT_FLOAT"}}}, {"name": "model_57/tf.nn.convolution_623/convolution/filter", "op": "Const", "attr": {"value": {"tensor": {"dtype": "DT_FLOAT", "tensorShape": {"dim": [{"size": "3"}, {"size": "3"}, {"size": "1"}, {"size": "1"}]}}}, "dtype": {"type": "DT_FLOAT"}}}, {"name": "model_57/tf.nn.convolution_624/convolution/filter", "op": "Const", "attr": {"value": {"tensor": {"dtype": "DT_FLOAT", "tensorShape": {"dim": [{"size": "3"}, {"size": "3"}, {"size": "1"}, {"size": "1"}]}}}, "dtype": {"type": "DT_FLOAT"}}}, {"name": "model_57/tf.nn.convolution_625/convolution/filter", "op": "Const", "attr": {"value": {"tensor": {"dtype": "DT_FLOAT", "tensorShape": {"dim": [{"size": "3"}, {"size": "3"}, {"size": "1"}, {"size": "1"}]}}}, "dtype": {"type": "DT_FLOAT"}}}, {"name": "model_57/tf.nn.convolution_626/convolution/filter", "op": "Const", "attr": {"value": {"tensor": {"dtype": "DT_FLOAT", "tensorShape": {"dim": [{"size": "3"}, {"size": "3"}, {"size": "1"}, {"size": "1"}]}}}, "dtype": {"type": "DT_FLOAT"}}}, {"name": "model_57/tf.nn.convolution_627/convolution/filter", "op": "Const", "attr": {"value": {"tensor": {"dtype": "DT_FLOAT", "tensorShape": {"dim": [{"size": "3"}, {"size": "3"}, {"size": "1"}, {"size": "1"}]}}}, "dtype": {"type": "DT_FLOAT"}}}, {"name": "model_57/tf.nn.convolution_628/convolution/filter", "op": "Const", "attr": {"value": {"tensor": {"dtype": "DT_FLOAT", "tensorShape": {"dim": [{"size": "3"}, {"size": "3"}, {"size": "1"}, {"size": "1"}]}}}, "dtype": {"type": "DT_FLOAT"}}}, {"name": "model_57/tf.nn.convolution_629/convolution/filter", "op": "Const", "attr": {"value": {"tensor": {"dtype": "DT_FLOAT", "tensorShape": {"dim": [{"size": "3"}, {"size": "3"}, {"size": "1"}, {"size": "1"}]}}}, "dtype": {"type": "DT_FLOAT"}}}, {"name": "model_57/tf.nn.convolution_630/convolution/filter", "op": "Const", "attr": {"value": {"tensor": {"dtype": "DT_FLOAT", "tensorShape": {"dim": [{"size": "3"}, {"size": "3"}, {"size": "1"}, {"size": "1"}]}}}, "dtype": {"type": "DT_FLOAT"}}}, {"name": "model_57/tf.nn.convolution_631/convolution/filter", "op": "Const", "attr": {"value": {"tensor": {"dtype": "DT_FLOAT", "tensorShape": {"dim": [{"size": "3"}, {"size": "3"}, {"size": "1"}, {"size": "1"}]}}}, "dtype": {"type": "DT_FLOAT"}}}, {"name": "model_57/tf.nn.convolution_632/convolution/filter", "op": "Const", "attr": {"value": {"tensor": {"dtype": "DT_FLOAT", "tensorShape": {"dim": [{"size": "3"}, {"size": "3"}, {"size": "1"}, {"size": "1"}]}}}, "dtype": {"type": "DT_FLOAT"}}}, {"name": "model_57/tf.nn.convolution_633/convolution/filter", "op": "Const", "attr": {"value": {"tensor": {"dtype": "DT_FLOAT", "tensorShape": {"dim": [{"size": "3"}, {"size": "3"}, {"size": "1"}, {"size": "1"}]}}}, "dtype": {"type": "DT_FLOAT"}}}, {"name": "model_57/tf.nn.convolution_634/convolution/filter", "op": "Const", "attr": {"value": {"tensor": {"dtype": "DT_FLOAT", "tensorShape": {"dim": [{"size": "3"}, {"size": "3"}, {"size": "1"}, {"size": "1"}]}}}, "dtype": {"type": "DT_FLOAT"}}}, {"name": "model_57/tf.nn.convolution_635/convolution/filter", "op": "Const", "attr": {"value": {"tensor": {"dtype": "DT_FLOAT", "tensorShape": {"dim": [{"size": "3"}, {"size": "3"}, {"size": "1"}, {"size": "1"}]}}}, "dtype": {"type": "DT_FLOAT"}}}, {"name": "model_57/tf.nn.convolution_636/convolution/filter", "op": "Const", "attr": {"value": {"tensor": {"dtype": "DT_FLOAT", "tensorShape": {"dim": [{"size": "3"}, {"size": "3"}, {"size": "1"}, {"size": "1"}]}}}, "dtype": {"type": "DT_FLOAT"}}}, {"name": "model_57/tf.split_1/split/split_dim", "op": "Const", "attr": {"value": {"tensor": {"dtype": "DT_INT32", "tensorShape": {}}}, "dtype": {"type": "DT_INT32"}}}, {"name": "model_57/tf.strided_slice_31/ones_like/tensor", "op": "Const", "attr": {"value": {"tensor": {"dtype": "DT_INT64", "tensorShape": {"dim": [{"size": "4"}]}}}, "dtype": {"type": "DT_INT64"}}}, {"name": "model_57/tf.strided_slice_31/StridedSlice/end", "op": "Const", "attr": {"value": {"tensor": {"dtype": "DT_INT64", "tensorShape": {"dim": [{"size": "4"}]}}}, "dtype": {"type": "DT_INT64"}}}, {"name": "model_57/tf.strided_slice_31/ones_like", "op": "Const", "attr": {"value": {"tensor": {"dtype": "DT_INT64", "tensorShape": {"dim": [{"size": "4"}]}}}, "dtype": {"type": "DT_INT64"}}}, {"name": "model_57/tf.nn.convolution_370/convolution/filter", "op": "Const", "attr": {"value": {"tensor": {"dtype": "DT_FLOAT", "tensorShape": {"dim": [{"size": "1"}, {"size": "1"}, {"size": "256"}, {"size": "128"}]}}}, "dtype": {"type": "DT_FLOAT"}}}, {"name": "model_57/tf.math.add_162/Add/y", "op": "Const", "attr": {"value": {"tensor": {"dtype": "DT_FLOAT", "tensorShape": {"dim": [{"size": "128"}]}}}, "dtype": {"type": "DT_FLOAT"}}}, {"name": "model_57/tf.nn.convolution_372/convolution/filter", "op": "Const", "attr": {"value": {"tensor": {"dtype": "DT_FLOAT", "tensorShape": {"dim": [{"size": "3"}, {"size": "3"}, {"size": "128"}, {"size": "128"}]}}}, "dtype": {"type": "DT_FLOAT"}}}, {"name": "model_57/tf.math.add_164/Add/y", "op": "Const", "attr": {"value": {"tensor": {"dtype": "DT_FLOAT", "tensorShape": {"dim": [{"size": "128"}]}}}, "dtype": {"type": "DT_FLOAT"}}}, {"name": "model_57/tf.nn.convolution_373/convolution/filter", "op": "Const", "attr": {"value": {"tensor": {"dtype": "DT_FLOAT", "tensorShape": {"dim": [{"size": "3"}, {"size": "3"}, {"size": "128"}, {"size": "128"}]}}}, "dtype": {"type": "DT_FLOAT"}}}, {"name": "model_57/tf.math.add_165/Add/y", "op": "Const", "attr": {"value": {"tensor": {"dtype": "DT_FLOAT", "tensorShape": {"dim": [{"size": "128"}]}}}, "dtype": {"type": "DT_FLOAT"}}}, {"name": "model_57/tf.nn.convolution_374/convolution/filter", "op": "Const", "attr": {"value": {"tensor": {"dtype": "DT_FLOAT", "tensorShape": {"dim": [{"size": "3"}, {"size": "3"}, {"size": "128"}, {"size": "128"}]}}}, "dtype": {"type": "DT_FLOAT"}}}, {"name": "model_57/tf.math.add_168/Add/y", "op": "Const", "attr": {"value": {"tensor": {"dtype": "DT_FLOAT", "tensorShape": {"dim": [{"size": "128"}]}}}, "dtype": {"type": "DT_FLOAT"}}}, {"name": "model_57/tf.nn.convolution_375/convolution/filter", "op": "Const", "attr": {"value": {"tensor": {"dtype": "DT_FLOAT", "tensorShape": {"dim": [{"size": "3"}, {"size": "3"}, {"size": "128"}, {"size": "128"}]}}}, "dtype": {"type": "DT_FLOAT"}}}, {"name": "model_57/tf.math.add_169/Add/y", "op": "Const", "attr": {"value": {"tensor": {"dtype": "DT_FLOAT", "tensorShape": {"dim": [{"size": "128"}]}}}, "dtype": {"type": "DT_FLOAT"}}}, {"name": "model_57/tf.strided_slice_29/ones_like/tensor", "op": "Const", "attr": {"value": {"tensor": {"dtype": "DT_INT64", "tensorShape": {"dim": [{"size": "4"}]}}}, "dtype": {"type": "DT_INT64"}}}, {"name": "model_57/tf.strided_slice_29/StridedSlice/end", "op": "Const", "attr": {"value": {"tensor": {"dtype": "DT_INT64", "tensorShape": {"dim": [{"size": "4"}]}}}, "dtype": {"type": "DT_INT64"}}}, {"name": "model_57/tf.strided_slice_29/ones_like", "op": "Const", "attr": {"value": {"tensor": {"dtype": "DT_INT64", "tensorShape": {"dim": [{"size": "4"}]}}}, "dtype": {"type": "DT_INT64"}}}, {"name": "model_57/tf.nn.convolution_360/convolution/filter", "op": "Const", "attr": {"value": {"tensor": {"dtype": "DT_FLOAT", "tensorShape": {"dim": [{"size": "1"}, {"size": "1"}, {"size": "256"}, {"size": "128"}]}}}, "dtype": {"type": "DT_FLOAT"}}}, {"name": "model_57/tf.math.add_148/Add/y", "op": "Const", "attr": {"value": {"tensor": {"dtype": "DT_FLOAT", "tensorShape": {"dim": [{"size": "128"}]}}}, "dtype": {"type": "DT_FLOAT"}}}, {"name": "model_57/tf.nn.convolution_362/convolution/filter", "op": "Const", "attr": {"value": {"tensor": {"dtype": "DT_FLOAT", "tensorShape": {"dim": [{"size": "3"}, {"size": "3"}, {"size": "128"}, {"size": "128"}]}}}, "dtype": {"type": "DT_FLOAT"}}}, {"name": "model_57/tf.math.add_150/Add/y", "op": "Const", "attr": {"value": {"tensor": {"dtype": "DT_FLOAT", "tensorShape": {"dim": [{"size": "128"}]}}}, "dtype": {"type": "DT_FLOAT"}}}, {"name": "model_57/tf.nn.convolution_363/convolution/filter", "op": "Const", "attr": {"value": {"tensor": {"dtype": "DT_FLOAT", "tensorShape": {"dim": [{"size": "3"}, {"size": "3"}, {"size": "128"}, {"size": "128"}]}}}, "dtype": {"type": "DT_FLOAT"}}}, {"name": "model_57/tf.math.add_151/Add/y", "op": "Const", "attr": {"value": {"tensor": {"dtype": "DT_FLOAT", "tensorShape": {"dim": [{"size": "128"}]}}}, "dtype": {"type": "DT_FLOAT"}}}, {"name": "model_57/tf.nn.convolution_364/convolution/filter", "op": "Const", "attr": {"value": {"tensor": {"dtype": "DT_FLOAT", "tensorShape": {"dim": [{"size": "3"}, {"size": "3"}, {"size": "128"}, {"size": "128"}]}}}, "dtype": {"type": "DT_FLOAT"}}}, {"name": "model_57/tf.math.add_154/Add/y", "op": "Const", "attr": {"value": {"tensor": {"dtype": "DT_FLOAT", "tensorShape": {"dim": [{"size": "128"}]}}}, "dtype": {"type": "DT_FLOAT"}}}, {"name": "model_57/tf.nn.convolution_365/convolution/filter", "op": "Const", "attr": {"value": {"tensor": {"dtype": "DT_FLOAT", "tensorShape": {"dim": [{"size": "3"}, {"size": "3"}, {"size": "128"}, {"size": "128"}]}}}, "dtype": {"type": "DT_FLOAT"}}}, {"name": "model_57/tf.math.add_155/Add/y", "op": "Const", "attr": {"value": {"tensor": {"dtype": "DT_FLOAT", "tensorShape": {"dim": [{"size": "128"}]}}}, "dtype": {"type": "DT_FLOAT"}}}, {"name": "model_57/tf.strided_slice_27/ones_like/tensor", "op": "Const", "attr": {"value": {"tensor": {"dtype": "DT_INT64", "tensorShape": {"dim": [{"size": "4"}]}}}, "dtype": {"type": "DT_INT64"}}}, {"name": "model_57/tf.strided_slice_27/StridedSlice/end", "op": "Const", "attr": {"value": {"tensor": {"dtype": "DT_INT64", "tensorShape": {"dim": [{"size": "4"}]}}}, "dtype": {"type": "DT_INT64"}}}, {"name": "model_57/tf.strided_slice_27/ones_like", "op": "Const", "attr": {"value": {"tensor": {"dtype": "DT_INT64", "tensorShape": {"dim": [{"size": "4"}]}}}, "dtype": {"type": "DT_INT64"}}}, {"name": "model_57/tf.nn.convolution_350/convolution/filter", "op": "Const", "attr": {"value": {"tensor": {"dtype": "DT_FLOAT", "tensorShape": {"dim": [{"size": "1"}, {"size": "1"}, {"size": "128"}, {"size": "64"}]}}}, "dtype": {"type": "DT_FLOAT"}}}, {"name": "model_57/tf.math.add_134/Add/y", "op": "Const", "attr": {"value": {"tensor": {"dtype": "DT_FLOAT", "tensorShape": {"dim": [{"size": "64"}]}}}, "dtype": {"type": "DT_FLOAT"}}}, {"name": "model_57/tf.nn.convolution_352/convolution/filter", "op": "Const", "attr": {"value": {"tensor": {"dtype": "DT_FLOAT", "tensorShape": {"dim": [{"size": "3"}, {"size": "3"}, {"size": "64"}, {"size": "64"}]}}}, "dtype": {"type": "DT_FLOAT"}}}, {"name": "model_57/tf.math.add_136/Add/y", "op": "Const", "attr": {"value": {"tensor": {"dtype": "DT_FLOAT", "tensorShape": {"dim": [{"size": "64"}]}}}, "dtype": {"type": "DT_FLOAT"}}}, {"name": "model_57/tf.nn.convolution_353/convolution/filter", "op": "Const", "attr": {"value": {"tensor": {"dtype": "DT_FLOAT", "tensorShape": {"dim": [{"size": "3"}, {"size": "3"}, {"size": "64"}, {"size": "64"}]}}}, "dtype": {"type": "DT_FLOAT"}}}, {"name": "model_57/tf.math.add_137/Add/y", "op": "Const", "attr": {"value": {"tensor": {"dtype": "DT_FLOAT", "tensorShape": {"dim": [{"size": "64"}]}}}, "dtype": {"type": "DT_FLOAT"}}}, {"name": "model_57/tf.nn.convolution_354/convolution/filter", "op": "Const", "attr": {"value": {"tensor": {"dtype": "DT_FLOAT", "tensorShape": {"dim": [{"size": "3"}, {"size": "3"}, {"size": "64"}, {"size": "64"}]}}}, "dtype": {"type": "DT_FLOAT"}}}, {"name": "model_57/tf.math.add_140/Add/y", "op": "Const", "attr": {"value": {"tensor": {"dtype": "DT_FLOAT", "tensorShape": {"dim": [{"size": "64"}]}}}, "dtype": {"type": "DT_FLOAT"}}}, {"name": "model_57/tf.nn.convolution_355/convolution/filter", "op": "Const", "attr": {"value": {"tensor": {"dtype": "DT_FLOAT", "tensorShape": {"dim": [{"size": "3"}, {"size": "3"}, {"size": "64"}, {"size": "64"}]}}}, "dtype": {"type": "DT_FLOAT"}}}, {"name": "model_57/tf.math.add_141/Add/y", "op": "Const", "attr": {"value": {"tensor": {"dtype": "DT_FLOAT", "tensorShape": {"dim": [{"size": "64"}]}}}, "dtype": {"type": "DT_FLOAT"}}}, {"name": "model_57/tf.strided_slice_25/ones_like/tensor", "op": "Const", "attr": {"value": {"tensor": {"dtype": "DT_INT64", "tensorShape": {"dim": [{"size": "4"}]}}}, "dtype": {"type": "DT_INT64"}}}, {"name": "model_57/tf.strided_slice_25/StridedSlice/end", "op": "Const", "attr": {"value": {"tensor": {"dtype": "DT_INT64", "tensorShape": {"dim": [{"size": "4"}]}}}, "dtype": {"type": "DT_INT64"}}}, {"name": "model_57/tf.strided_slice_25/ones_like", "op": "Const", "attr": {"value": {"tensor": {"dtype": "DT_INT64", "tensorShape": {"dim": [{"size": "4"}]}}}, "dtype": {"type": "DT_INT64"}}}, {"name": "model_57/tf.nn.convolution_340/convolution/filter", "op": "Const", "attr": {"value": {"tensor": {"dtype": "DT_FLOAT", "tensorShape": {"dim": [{"size": "1"}, {"size": "1"}, {"size": "64"}, {"size": "32"}]}}}, "dtype": {"type": "DT_FLOAT"}}}, {"name": "model_57/tf.math.add_120/Add/y", "op": "Const", "attr": {"value": {"tensor": {"dtype": "DT_FLOAT", "tensorShape": {"dim": [{"size": "32"}]}}}, "dtype": {"type": "DT_FLOAT"}}}, {"name": "model_57/tf.nn.convolution_342/convolution/filter", "op": "Const", "attr": {"value": {"tensor": {"dtype": "DT_FLOAT", "tensorShape": {"dim": [{"size": "3"}, {"size": "3"}, {"size": "32"}, {"size": "32"}]}}}, "dtype": {"type": "DT_FLOAT"}}}, {"name": "model_57/tf.math.add_122/Add/y", "op": "Const", "attr": {"value": {"tensor": {"dtype": "DT_FLOAT", "tensorShape": {"dim": [{"size": "32"}]}}}, "dtype": {"type": "DT_FLOAT"}}}, {"name": "model_57/tf.nn.convolution_343/convolution/filter", "op": "Const", "attr": {"value": {"tensor": {"dtype": "DT_FLOAT", "tensorShape": {"dim": [{"size": "3"}, {"size": "3"}, {"size": "32"}, {"size": "32"}]}}}, "dtype": {"type": "DT_FLOAT"}}}, {"name": "model_57/tf.math.add_123/Add/y", "op": "Const", "attr": {"value": {"tensor": {"dtype": "DT_FLOAT", "tensorShape": {"dim": [{"size": "32"}]}}}, "dtype": {"type": "DT_FLOAT"}}}, {"name": "model_57/tf.nn.convolution_344/convolution/filter", "op": "Const", "attr": {"value": {"tensor": {"dtype": "DT_FLOAT", "tensorShape": {"dim": [{"size": "3"}, {"size": "3"}, {"size": "32"}, {"size": "32"}]}}}, "dtype": {"type": "DT_FLOAT"}}}, {"name": "model_57/tf.math.add_126/Add/y", "op": "Const", "attr": {"value": {"tensor": {"dtype": "DT_FLOAT", "tensorShape": {"dim": [{"size": "32"}]}}}, "dtype": {"type": "DT_FLOAT"}}}, {"name": "model_57/tf.nn.convolution_345/convolution/filter", "op": "Const", "attr": {"value": {"tensor": {"dtype": "DT_FLOAT", "tensorShape": {"dim": [{"size": "3"}, {"size": "3"}, {"size": "32"}, {"size": "32"}]}}}, "dtype": {"type": "DT_FLOAT"}}}, {"name": "model_57/tf.math.add_127/Add/y", "op": "Const", "attr": {"value": {"tensor": {"dtype": "DT_FLOAT", "tensorShape": {"dim": [{"size": "32"}]}}}, "dtype": {"type": "DT_FLOAT"}}}, {"name": "model_57/tf.compat.v1.pad_7/Pad/paddings", "op": "Const", "attr": {"value": {"tensor": {"dtype": "DT_INT32", "tensorShape": {"dim": [{"size": "4"}, {"size": "2"}]}}}, "dtype": {"type": "DT_INT32"}}}, {"name": "model_57/tf.nn.convolution_337/convolution/filter", "op": "Const", "attr": {"value": {"tensor": {"dtype": "DT_FLOAT", "tensorShape": {"dim": [{"size": "3"}, {"size": "3"}, {"size": "3"}, {"size": "64"}]}}}, "dtype": {"type": "DT_FLOAT"}}}, {"name": "model_57/tf.math.add_117/Add/y", "op": "Const", "attr": {"value": {"tensor": {"dtype": "DT_FLOAT", "tensorShape": {"dim": [{"size": "64"}]}}}, "dtype": {"type": "DT_FLOAT"}}}, {"name": "model_57/tf.compat.v1.pad_8/Pad/paddings", "op": "Const", "attr": {"value": {"tensor": {"dtype": "DT_INT32", "tensorShape": {"dim": [{"size": "4"}, {"size": "2"}]}}}, "dtype": {"type": "DT_INT32"}}}, {"name": "model_57/tf.nn.convolution_338/convolution/filter", "op": "Const", "attr": {"value": {"tensor": {"dtype": "DT_FLOAT", "tensorShape": {"dim": [{"size": "3"}, {"size": "3"}, {"size": "64"}, {"size": "128"}]}}}, "dtype": {"type": "DT_FLOAT"}}}, {"name": "model_57/tf.math.add_118/Add/y", "op": "Const", "attr": {"value": {"tensor": {"dtype": "DT_FLOAT", "tensorShape": {"dim": [{"size": "128"}]}}}, "dtype": {"type": "DT_FLOAT"}}}, {"name": "model_57/tf.nn.convolution_339/convolution/filter", "op": "Const", "attr": {"value": {"tensor": {"dtype": "DT_FLOAT", "tensorShape": {"dim": [{"size": "1"}, {"size": "1"}, {"size": "128"}, {"size": "128"}]}}}, "dtype": {"type": "DT_FLOAT"}}}, {"name": "model_57/tf.math.add_119/Add/y", "op": "Const", "attr": {"value": {"tensor": {"dtype": "DT_FLOAT", "tensorShape": {"dim": [{"size": "128"}]}}}, "dtype": {"type": "DT_FLOAT"}}}, {"name": "model_57/tf.strided_slice_26/ones_like/tensor", "op": "Const", "attr": {"value": {"tensor": {"dtype": "DT_INT64", "tensorShape": {"dim": [{"size": "4"}]}}}, "dtype": {"type": "DT_INT64"}}}, {"name": "model_57/tf.strided_slice_26/StridedSlice/end", "op": "Const", "attr": {"value": {"tensor": {"dtype": "DT_INT64", "tensorShape": {"dim": [{"size": "4"}]}}}, "dtype": {"type": "DT_INT64"}}}, {"name": "model_57/tf.strided_slice_26/ones_like", "op": "Const", "attr": {"value": {"tensor": {"dtype": "DT_INT64", "tensorShape": {"dim": [{"size": "4"}]}}}, "dtype": {"type": "DT_INT64"}}}, {"name": "model_57/tf.nn.convolution_341/convolution/filter", "op": "Const", "attr": {"value": {"tensor": {"dtype": "DT_FLOAT", "tensorShape": {"dim": [{"size": "1"}, {"size": "1"}, {"size": "64"}, {"size": "32"}]}}}, "dtype": {"type": "DT_FLOAT"}}}, {"name": "model_57/tf.math.add_121/Add/y", "op": "Const", "attr": {"value": {"tensor": {"dtype": "DT_FLOAT", "tensorShape": {"dim": [{"size": "32"}]}}}, "dtype": {"type": "DT_FLOAT"}}}, {"name": "model_57/tf.concat_29/concat/axis", "op": "Const", "attr": {"value": {"tensor": {"dtype": "DT_INT32", "tensorShape": {}}}, "dtype": {"type": "DT_INT32"}}}, {"name": "model_57/tf.nn.convolution_346/convolution/filter", "op": "Const", "attr": {"value": {"tensor": {"dtype": "DT_FLOAT", "tensorShape": {"dim": [{"size": "1"}, {"size": "1"}, {"size": "64"}, {"size": "64"}]}}}, "dtype": {"type": "DT_FLOAT"}}}, {"name": "model_57/tf.math.add_130/Add/y", "op": "Const", "attr": {"value": {"tensor": {"dtype": "DT_FLOAT", "tensorShape": {"dim": [{"size": "64"}]}}}, "dtype": {"type": "DT_FLOAT"}}}, {"name": "model_57/tf.concat_30/concat/axis", "op": "Const", "attr": {"value": {"tensor": {"dtype": "DT_INT32", "tensorShape": {}}}, "dtype": {"type": "DT_INT32"}}}, {"name": "model_57/tf.nn.convolution_347/convolution/filter", "op": "Const", "attr": {"value": {"tensor": {"dtype": "DT_FLOAT", "tensorShape": {"dim": [{"size": "1"}, {"size": "1"}, {"size": "192"}, {"size": "256"}]}}}, "dtype": {"type": "DT_FLOAT"}}}, {"name": "model_57/tf.math.add_131/Add/y", "op": "Const", "attr": {"value": {"tensor": {"dtype": "DT_FLOAT", "tensorShape": {"dim": [{"size": "256"}]}}}, "dtype": {"type": "DT_FLOAT"}}}, {"name": "model_57/tf.compat.v1.pad_9/Pad/paddings", "op": "Const", "attr": {"value": {"tensor": {"dtype": "DT_INT32", "tensorShape": {"dim": [{"size": "4"}, {"size": "2"}]}}}, "dtype": {"type": "DT_INT32"}}}, {"name": "model_57/tf.nn.convolution_348/convolution/filter", "op": "Const", "attr": {"value": {"tensor": {"dtype": "DT_FLOAT", "tensorShape": {"dim": [{"size": "3"}, {"size": "3"}, {"size": "256"}, {"size": "256"}]}}}, "dtype": {"type": "DT_FLOAT"}}}, {"name": "model_57/tf.math.add_132/Add/y", "op": "Const", "attr": {"value": {"tensor": {"dtype": "DT_FLOAT", "tensorShape": {"dim": [{"size": "256"}]}}}, "dtype": {"type": "DT_FLOAT"}}}, {"name": "model_57/tf.nn.convolution_349/convolution/filter", "op": "Const", "attr": {"value": {"tensor": {"dtype": "DT_FLOAT", "tensorShape": {"dim": [{"size": "1"}, {"size": "1"}, {"size": "256"}, {"size": "256"}]}}}, "dtype": {"type": "DT_FLOAT"}}}, {"name": "model_57/tf.math.add_133/Add/y", "op": "Const", "attr": {"value": {"tensor": {"dtype": "DT_FLOAT", "tensorShape": {"dim": [{"size": "256"}]}}}, "dtype": {"type": "DT_FLOAT"}}}, {"name": "model_57/tf.strided_slice_28/ones_like/tensor", "op": "Const", "attr": {"value": {"tensor": {"dtype": "DT_INT64", "tensorShape": {"dim": [{"size": "4"}]}}}, "dtype": {"type": "DT_INT64"}}}, {"name": "model_57/tf.strided_slice_28/StridedSlice/end", "op": "Const", "attr": {"value": {"tensor": {"dtype": "DT_INT64", "tensorShape": {"dim": [{"size": "4"}]}}}, "dtype": {"type": "DT_INT64"}}}, {"name": "model_57/tf.strided_slice_28/ones_like", "op": "Const", "attr": {"value": {"tensor": {"dtype": "DT_INT64", "tensorShape": {"dim": [{"size": "4"}]}}}, "dtype": {"type": "DT_INT64"}}}, {"name": "model_57/tf.nn.convolution_351/convolution/filter", "op": "Const", "attr": {"value": {"tensor": {"dtype": "DT_FLOAT", "tensorShape": {"dim": [{"size": "1"}, {"size": "1"}, {"size": "128"}, {"size": "64"}]}}}, "dtype": {"type": "DT_FLOAT"}}}, {"name": "model_57/tf.math.add_135/Add/y", "op": "Const", "attr": {"value": {"tensor": {"dtype": "DT_FLOAT", "tensorShape": {"dim": [{"size": "64"}]}}}, "dtype": {"type": "DT_FLOAT"}}}, {"name": "model_57/tf.concat_31/concat/axis", "op": "Const", "attr": {"value": {"tensor": {"dtype": "DT_INT32", "tensorShape": {}}}, "dtype": {"type": "DT_INT32"}}}, {"name": "model_57/tf.nn.convolution_356/convolution/filter", "op": "Const", "attr": {"value": {"tensor": {"dtype": "DT_FLOAT", "tensorShape": {"dim": [{"size": "1"}, {"size": "1"}, {"size": "128"}, {"size": "128"}]}}}, "dtype": {"type": "DT_FLOAT"}}}, {"name": "model_57/tf.math.add_144/Add/y", "op": "Const", "attr": {"value": {"tensor": {"dtype": "DT_FLOAT", "tensorShape": {"dim": [{"size": "128"}]}}}, "dtype": {"type": "DT_FLOAT"}}}, {"name": "model_57/tf.concat_32/concat/axis", "op": "Const", "attr": {"value": {"tensor": {"dtype": "DT_INT32", "tensorShape": {}}}, "dtype": {"type": "DT_INT32"}}}, {"name": "model_57/tf.nn.convolution_357/convolution/filter", "op": "Const", "attr": {"value": {"tensor": {"dtype": "DT_FLOAT", "tensorShape": {"dim": [{"size": "1"}, {"size": "1"}, {"size": "384"}, {"size": "512"}]}}}, "dtype": {"type": "DT_FLOAT"}}}, {"name": "model_57/tf.math.add_145/Add/y", "op": "Const", "attr": {"value": {"tensor": {"dtype": "DT_FLOAT", "tensorShape": {"dim": [{"size": "512"}]}}}, "dtype": {"type": "DT_FLOAT"}}}, {"name": "model_57/tf.compat.v1.pad_10/Pad/paddings", "op": "Const", "attr": {"value": {"tensor": {"dtype": "DT_INT32", "tensorShape": {"dim": [{"size": "4"}, {"size": "2"}]}}}, "dtype": {"type": "DT_INT32"}}}, {"name": "model_57/tf.nn.convolution_358/convolution/filter", "op": "Const", "attr": {"value": {"tensor": {"dtype": "DT_FLOAT", "tensorShape": {"dim": [{"size": "3"}, {"size": "3"}, {"size": "512"}, {"size": "512"}]}}}, "dtype": {"type": "DT_FLOAT"}}}, {"name": "model_57/tf.math.add_146/Add/y", "op": "Const", "attr": {"value": {"tensor": {"dtype": "DT_FLOAT", "tensorShape": {"dim": [{"size": "512"}]}}}, "dtype": {"type": "DT_FLOAT"}}}, {"name": "model_57/tf.nn.convolution_359/convolution/filter", "op": "Const", "attr": {"value": {"tensor": {"dtype": "DT_FLOAT", "tensorShape": {"dim": [{"size": "1"}, {"size": "1"}, {"size": "512"}, {"size": "512"}]}}}, "dtype": {"type": "DT_FLOAT"}}}, {"name": "model_57/tf.math.add_147/Add/y", "op": "Const", "attr": {"value": {"tensor": {"dtype": "DT_FLOAT", "tensorShape": {"dim": [{"size": "512"}]}}}, "dtype": {"type": "DT_FLOAT"}}}, {"name": "model_57/tf.strided_slice_30/ones_like/tensor", "op": "Const", "attr": {"value": {"tensor": {"dtype": "DT_INT64", "tensorShape": {"dim": [{"size": "4"}]}}}, "dtype": {"type": "DT_INT64"}}}, {"name": "model_57/tf.strided_slice_30/StridedSlice/end", "op": "Const", "attr": {"value": {"tensor": {"dtype": "DT_INT64", "tensorShape": {"dim": [{"size": "4"}]}}}, "dtype": {"type": "DT_INT64"}}}, {"name": "model_57/tf.strided_slice_30/ones_like", "op": "Const", "attr": {"value": {"tensor": {"dtype": "DT_INT64", "tensorShape": {"dim": [{"size": "4"}]}}}, "dtype": {"type": "DT_INT64"}}}, {"name": "model_57/tf.nn.convolution_361/convolution/filter", "op": "Const", "attr": {"value": {"tensor": {"dtype": "DT_FLOAT", "tensorShape": {"dim": [{"size": "1"}, {"size": "1"}, {"size": "256"}, {"size": "128"}]}}}, "dtype": {"type": "DT_FLOAT"}}}, {"name": "model_57/tf.math.add_149/Add/y", "op": "Const", "attr": {"value": {"tensor": {"dtype": "DT_FLOAT", "tensorShape": {"dim": [{"size": "128"}]}}}, "dtype": {"type": "DT_FLOAT"}}}, {"name": "model_57/tf.concat_33/concat/axis", "op": "Const", "attr": {"value": {"tensor": {"dtype": "DT_INT32", "tensorShape": {}}}, "dtype": {"type": "DT_INT32"}}}, {"name": "model_57/tf.nn.convolution_366/convolution/filter", "op": "Const", "attr": {"value": {"tensor": {"dtype": "DT_FLOAT", "tensorShape": {"dim": [{"size": "1"}, {"size": "1"}, {"size": "256"}, {"size": "256"}]}}}, "dtype": {"type": "DT_FLOAT"}}}, {"name": "model_57/tf.math.add_158/Add/y", "op": "Const", "attr": {"value": {"tensor": {"dtype": "DT_FLOAT", "tensorShape": {"dim": [{"size": "256"}]}}}, "dtype": {"type": "DT_FLOAT"}}}, {"name": "model_57/tf.concat_34/concat/axis", "op": "Const", "attr": {"value": {"tensor": {"dtype": "DT_INT32", "tensorShape": {}}}, "dtype": {"type": "DT_INT32"}}}, {"name": "model_57/tf.nn.convolution_367/convolution/filter", "op": "Const", "attr": {"value": {"tensor": {"dtype": "DT_FLOAT", "tensorShape": {"dim": [{"size": "1"}, {"size": "1"}, {"size": "768"}, {"size": "512"}]}}}, "dtype": {"type": "DT_FLOAT"}}}, {"name": "model_57/tf.math.add_159/Add/y", "op": "Const", "attr": {"value": {"tensor": {"dtype": "DT_FLOAT", "tensorShape": {"dim": [{"size": "512"}]}}}, "dtype": {"type": "DT_FLOAT"}}}, {"name": "model_57/tf.compat.v1.pad_11/Pad/paddings", "op": "Const", "attr": {"value": {"tensor": {"dtype": "DT_INT32", "tensorShape": {"dim": [{"size": "4"}, {"size": "2"}]}}}, "dtype": {"type": "DT_INT32"}}}, {"name": "model_57/tf.nn.convolution_368/convolution/filter", "op": "Const", "attr": {"value": {"tensor": {"dtype": "DT_FLOAT", "tensorShape": {"dim": [{"size": "3"}, {"size": "3"}, {"size": "512"}, {"size": "512"}]}}}, "dtype": {"type": "DT_FLOAT"}}}, {"name": "model_57/tf.math.add_160/Add/y", "op": "Const", "attr": {"value": {"tensor": {"dtype": "DT_FLOAT", "tensorShape": {"dim": [{"size": "512"}]}}}, "dtype": {"type": "DT_FLOAT"}}}, {"name": "model_57/tf.nn.convolution_369/convolution/filter", "op": "Const", "attr": {"value": {"tensor": {"dtype": "DT_FLOAT", "tensorShape": {"dim": [{"size": "1"}, {"size": "1"}, {"size": "512"}, {"size": "512"}]}}}, "dtype": {"type": "DT_FLOAT"}}}, {"name": "model_57/tf.math.add_161/Add/y", "op": "Const", "attr": {"value": {"tensor": {"dtype": "DT_FLOAT", "tensorShape": {"dim": [{"size": "512"}]}}}, "dtype": {"type": "DT_FLOAT"}}}, {"name": "model_57/tf.strided_slice_32/ones_like/tensor", "op": "Const", "attr": {"value": {"tensor": {"dtype": "DT_INT64", "tensorShape": {"dim": [{"size": "4"}]}}}, "dtype": {"type": "DT_INT64"}}}, {"name": "model_57/tf.strided_slice_32/StridedSlice/end", "op": "Const", "attr": {"value": {"tensor": {"dtype": "DT_INT64", "tensorShape": {"dim": [{"size": "4"}]}}}, "dtype": {"type": "DT_INT64"}}}, {"name": "model_57/tf.strided_slice_32/ones_like", "op": "Const", "attr": {"value": {"tensor": {"dtype": "DT_INT64", "tensorShape": {"dim": [{"size": "4"}]}}}, "dtype": {"type": "DT_INT64"}}}, {"name": "model_57/tf.nn.convolution_371/convolution/filter", "op": "Const", "attr": {"value": {"tensor": {"dtype": "DT_FLOAT", "tensorShape": {"dim": [{"size": "1"}, {"size": "1"}, {"size": "256"}, {"size": "128"}]}}}, "dtype": {"type": "DT_FLOAT"}}}, {"name": "model_57/tf.math.add_163/Add/y", "op": "Const", "attr": {"value": {"tensor": {"dtype": "DT_FLOAT", "tensorShape": {"dim": [{"size": "128"}]}}}, "dtype": {"type": "DT_FLOAT"}}}, {"name": "model_57/tf.concat_35/concat/axis", "op": "Const", "attr": {"value": {"tensor": {"dtype": "DT_INT32", "tensorShape": {}}}, "dtype": {"type": "DT_INT32"}}}, {"name": "model_57/tf.nn.convolution_376/convolution/filter", "op": "Const", "attr": {"value": {"tensor": {"dtype": "DT_FLOAT", "tensorShape": {"dim": [{"size": "1"}, {"size": "1"}, {"size": "256"}, {"size": "256"}]}}}, "dtype": {"type": "DT_FLOAT"}}}, {"name": "model_57/tf.math.add_172/Add/y", "op": "Const", "attr": {"value": {"tensor": {"dtype": "DT_FLOAT", "tensorShape": {"dim": [{"size": "256"}]}}}, "dtype": {"type": "DT_FLOAT"}}}, {"name": "model_57/tf.concat_36/concat/axis", "op": "Const", "attr": {"value": {"tensor": {"dtype": "DT_INT32", "tensorShape": {}}}, "dtype": {"type": "DT_INT32"}}}, {"name": "model_57/tf.nn.convolution_377/convolution/filter", "op": "Const", "attr": {"value": {"tensor": {"dtype": "DT_FLOAT", "tensorShape": {"dim": [{"size": "1"}, {"size": "1"}, {"size": "768"}, {"size": "512"}]}}}, "dtype": {"type": "DT_FLOAT"}}}, {"name": "model_57/tf.math.add_173/Add/y", "op": "Const", "attr": {"value": {"tensor": {"dtype": "DT_FLOAT", "tensorShape": {"dim": [{"size": "512"}]}}}, "dtype": {"type": "DT_FLOAT"}}}, {"name": "model_57/tf.nn.convolution_378/convolution/filter", "op": "Const", "attr": {"value": {"tensor": {"dtype": "DT_FLOAT", "tensorShape": {"dim": [{"size": "1"}, {"size": "1"}, {"size": "512"}, {"size": "256"}]}}}, "dtype": {"type": "DT_FLOAT"}}}, {"name": "model_57/tf.math.add_174/Add/y", "op": "Const", "attr": {"value": {"tensor": {"dtype": "DT_FLOAT", "tensorShape": {"dim": [{"size": "256"}]}}}, "dtype": {"type": "DT_FLOAT"}}}, {"name": "model_57/tf.concat_37/concat/axis", "op": "Const", "attr": {"value": {"tensor": {"dtype": "DT_INT32", "tensorShape": {}}}, "dtype": {"type": "DT_INT32"}}}, {"name": "model_57/tf.nn.convolution_379/convolution/filter", "op": "Const", "attr": {"value": {"tensor": {"dtype": "DT_FLOAT", "tensorShape": {"dim": [{"size": "1"}, {"size": "1"}, {"size": "1024"}, {"size": "512"}]}}}, "dtype": {"type": "DT_FLOAT"}}}, {"name": "model_57/tf.math.add_175/Add/y", "op": "Const", "attr": {"value": {"tensor": {"dtype": "DT_FLOAT", "tensorShape": {"dim": [{"size": "512"}]}}}, "dtype": {"type": "DT_FLOAT"}}}, {"name": "model_57/tf.nn.convolution_380/convolution/filter", "op": "Const", "attr": {"value": {"tensor": {"dtype": "DT_FLOAT", "tensorShape": {"dim": [{"size": "1"}, {"size": "1"}, {"size": "512"}, {"size": "512"}]}}}, "dtype": {"type": "DT_FLOAT"}}}, {"name": "model_57/tf.math.add_176/Add/y", "op": "Const", "attr": {"value": {"tensor": {"dtype": "DT_FLOAT", "tensorShape": {"dim": [{"size": "512"}]}}}, "dtype": {"type": "DT_FLOAT"}}}, {"name": "model_57/tf.strided_slice_34/StridedSlice/begin", "op": "Const", "attr": {"value": {"tensor": {"dtype": "DT_INT32", "tensorShape": {"dim": [{"size": "4"}]}}}, "dtype": {"type": "DT_INT32"}}}, {"name": "model_57/tf.strided_slice_34/StridedSlice/end", "op": "Const", "attr": {"value": {"tensor": {"dtype": "DT_INT32", "tensorShape": {"dim": [{"size": "4"}]}}}, "dtype": {"type": "DT_INT32"}}}, {"name": "model_57/tf.strided_slice_34/ones_like", "op": "Const", "attr": {"value": {"tensor": {"dtype": "DT_INT32", "tensorShape": {"dim": [{"size": "4"}]}}}, "dtype": {"type": "DT_INT32"}}}, {"name": "model_57/tf.nn.convolution_381/convolution/filter", "op": "Const", "attr": {"value": {"tensor": {"dtype": "DT_FLOAT", "tensorShape": {"dim": [{"size": "1"}, {"size": "1"}, {"size": "256"}, {"size": "512"}]}}}, "dtype": {"type": "DT_FLOAT"}}}, {"name": "model_57/tf.math.add_177/Add/y", "op": "Const", "attr": {"value": {"tensor": {"dtype": "DT_FLOAT", "tensorShape": {"dim": [{"size": "512"}]}}}, "dtype": {"type": "DT_FLOAT"}}}, {"name": "model_57/tf.compat.v1.transpose_191/transpose/perm", "op": "Const", "attr": {"value": {"tensor": {"dtype": "DT_INT32", "tensorShape": {"dim": [{"size": "4"}]}}}, "dtype": {"type": "DT_INT32"}}}, {"name": "model_57/tf.reshape_26/Reshape/shape", "op": "Const", "attr": {"value": {"tensor": {"dtype": "DT_INT32", "tensorShape": {"dim": [{"size": "4"}]}}}, "dtype": {"type": "DT_INT32"}}}, {"name": "model_57/tf.strided_slice_37/StridedSlice/begin", "op": "Const", "attr": {"value": {"tensor": {"dtype": "DT_INT32", "tensorShape": {"dim": [{"size": "4"}]}}}, "dtype": {"type": "DT_INT32"}}}, {"name": "model_57/tf.strided_slice_37/StridedSlice/end", "op": "Const", "attr": {"value": {"tensor": {"dtype": "DT_INT32", "tensorShape": {"dim": [{"size": "4"}]}}}, "dtype": {"type": "DT_INT32"}}}, {"name": "model_57/tf.strided_slice_37/ones_like", "op": "Const", "attr": {"value": {"tensor": {"dtype": "DT_INT32", "tensorShape": {"dim": [{"size": "4"}]}}}, "dtype": {"type": "DT_INT32"}}}, {"name": "model_57/tf.reshape_29/Reshape/shape", "op": "Const", "attr": {"value": {"tensor": {"dtype": "DT_INT32", "tensorShape": {"dim": [{"size": "4"}]}}}, "dtype": {"type": "DT_INT32"}}}, {"name": "model_57/tf.compat.v1.transpose_199/transpose/perm", "op": "Const", "attr": {"value": {"tensor": {"dtype": "DT_INT32", "tensorShape": {"dim": [{"size": "4"}]}}}, "dtype": {"type": "DT_INT32"}}}, {"name": "model_57/tf.nn.convolution_637/convolution/filter", "op": "Const", "attr": {"value": {"tensor": {"dtype": "DT_FLOAT", "tensorShape": {"dim": [{"size": "3"}, {"size": "3"}, {"size": "1"}, {"size": "1"}]}}}, "dtype": {"type": "DT_FLOAT"}}}, {"name": "model_57/tf.concat_38/concat/axis", "op": "Const", "attr": {"value": {"tensor": {"dtype": "DT_INT32", "tensorShape": {}}}, "dtype": {"type": "DT_INT32"}}}, {"name": "model_57/tf.nn.convolution_638/convolution/filter", "op": "Const", "attr": {"value": {"tensor": {"dtype": "DT_FLOAT", "tensorShape": {"dim": [{"size": "1"}, {"size": "1"}, {"size": "256"}, {"size": "256"}]}}}, "dtype": {"type": "DT_FLOAT"}}}, {"name": "model_57/tf.math.add_181/Add/y", "op": "Const", "attr": {"value": {"tensor": {"dtype": "DT_FLOAT", "tensorShape": {"dim": [{"size": "256"}]}}}, "dtype": {"type": "DT_FLOAT"}}}, {"name": "model_57/tf.nn.convolution_639/convolution/filter", "op": "Const", "attr": {"value": {"tensor": {"dtype": "DT_FLOAT", "tensorShape": {"dim": [{"size": "1"}, {"size": "1"}, {"size": "256"}, {"size": "512"}]}}}, "dtype": {"type": "DT_FLOAT"}}}, {"name": "model_57/tf.math.add_184/Add/y", "op": "Const", "attr": {"value": {"tensor": {"dtype": "DT_FLOAT", "tensorShape": {"dim": [{"size": "512"}]}}}, "dtype": {"type": "DT_FLOAT"}}}, {"name": "model_57/tf.nn.convolution_640/convolution/filter", "op": "Const", "attr": {"value": {"tensor": {"dtype": "DT_FLOAT", "tensorShape": {"dim": [{"size": "1"}, {"size": "1"}, {"size": "512"}, {"size": "256"}]}}}, "dtype": {"type": "DT_FLOAT"}}}, {"name": "model_57/tf.concat_39/concat/axis", "op": "Const", "attr": {"value": {"tensor": {"dtype": "DT_INT32", "tensorShape": {}}}, "dtype": {"type": "DT_INT32"}}}, {"name": "model_57/tf.nn.convolution_641/convolution/filter", "op": "Const", "attr": {"value": {"tensor": {"dtype": "DT_FLOAT", "tensorShape": {"dim": [{"size": "1"}, {"size": "1"}, {"size": "512"}, {"size": "512"}]}}}, "dtype": {"type": "DT_FLOAT"}}}, {"name": "model_57/tf.math.add_188/Add/y", "op": "Const", "attr": {"value": {"tensor": {"dtype": "DT_FLOAT", "tensorShape": {"dim": [{"size": "512"}]}}}, "dtype": {"type": "DT_FLOAT"}}}, {"name": "model_57/tf.concat_52/concat/axis", "op": "Const", "attr": {"value": {"tensor": {"dtype": "DT_INT32", "tensorShape": {}}}, "dtype": {"type": "DT_INT32"}}}, {"name": "model_57/tf.nn.convolution_680/convolution/filter", "op": "Const", "attr": {"value": {"tensor": {"dtype": "DT_FLOAT", "tensorShape": {"dim": [{"size": "1"}, {"size": "1"}, {"size": "1024"}, {"size": "512"}]}}}, "dtype": {"type": "DT_FLOAT"}}}, {"name": "model_57/tf.math.add_242/Add/y", "op": "Const", "attr": {"value": {"tensor": {"dtype": "DT_FLOAT", "tensorShape": {"dim": [{"size": "512"}]}}}, "dtype": {"type": "DT_FLOAT"}}}, {"name": "model_57/tf.strided_slice_45/ones_like/tensor", "op": "Const", "attr": {"value": {"tensor": {"dtype": "DT_INT64", "tensorShape": {"dim": [{"size": "4"}]}}}, "dtype": {"type": "DT_INT64"}}}, {"name": "model_57/tf.strided_slice_45/StridedSlice/end", "op": "Const", "attr": {"value": {"tensor": {"dtype": "DT_INT64", "tensorShape": {"dim": [{"size": "4"}]}}}, "dtype": {"type": "DT_INT64"}}}, {"name": "model_57/tf.strided_slice_45/ones_like", "op": "Const", "attr": {"value": {"tensor": {"dtype": "DT_INT64", "tensorShape": {"dim": [{"size": "4"}]}}}, "dtype": {"type": "DT_INT64"}}}, {"name": "model_57/tf.nn.convolution_683/convolution/filter", "op": "Const", "attr": {"value": {"tensor": {"dtype": "DT_FLOAT", "tensorShape": {"dim": [{"size": "1"}, {"size": "1"}, {"size": "256"}, {"size": "128"}]}}}, "dtype": {"type": "DT_FLOAT"}}}, {"name": "model_57/tf.math.add_246/Add/y", "op": "Const", "attr": {"value": {"tensor": {"dtype": "DT_FLOAT", "tensorShape": {"dim": [{"size": "128"}]}}}, "dtype": {"type": "DT_FLOAT"}}}, {"name": "model_57/tf.concat_54/concat/axis", "op": "Const", "attr": {"value": {"tensor": {"dtype": "DT_INT32", "tensorShape": {}}}, "dtype": {"type": "DT_INT32"}}}, {"name": "model_57/tf.nn.convolution_690/convolution/filter", "op": "Const", "attr": {"value": {"tensor": {"dtype": "DT_FLOAT", "tensorShape": {"dim": [{"size": "1"}, {"size": "1"}, {"size": "256"}, {"size": "256"}]}}}, "dtype": {"type": "DT_FLOAT"}}}, {"name": "model_57/tf.math.add_257/Add/y", "op": "Const", "attr": {"value": {"tensor": {"dtype": "DT_FLOAT", "tensorShape": {"dim": [{"size": "256"}]}}}, "dtype": {"type": "DT_FLOAT"}}}, {"name": "model_57/tf.concat_55/concat/axis", "op": "Const", "attr": {"value": {"tensor": {"dtype": "DT_INT32", "tensorShape": {}}}, "dtype": {"type": "DT_INT32"}}}, {"name": "model_57/tf.nn.convolution_691/convolution/filter", "op": "Const", "attr": {"value": {"tensor": {"dtype": "DT_FLOAT", "tensorShape": {"dim": [{"size": "1"}, {"size": "1"}, {"size": "768"}, {"size": "512"}]}}}, "dtype": {"type": "DT_FLOAT"}}}, {"name": "model_57/tf.math.add_258/Add/y", "op": "Const", "attr": {"value": {"tensor": {"dtype": "DT_FLOAT", "tensorShape": {"dim": [{"size": "512"}]}}}, "dtype": {"type": "DT_FLOAT"}}}, {"name": "model_57/tf.compat.v1.nn.depthwise_conv2d_10/depthwise/filter_in", "op": "Const", "attr": {"value": {"tensor": {"dtype": "DT_FLOAT", "tensorShape": {"dim": [{"size": "3"}, {"size": "3"}, {"size": "512"}, {"size": "1"}]}}}, "dtype": {"type": "DT_FLOAT"}}}, {"name": "model_57/tf.math.add_260/Add/y", "op": "Const", "attr": {"value": {"tensor": {"dtype": "DT_FLOAT", "tensorShape": {"dim": [{"size": "512"}]}}}, "dtype": {"type": "DT_FLOAT"}}}, {"name": "model_57/tf.nn.convolution_694/convolution/filter", "op": "Const", "attr": {"value": {"tensor": {"dtype": "DT_FLOAT", "tensorShape": {"dim": [{"size": "1"}, {"size": "1"}, {"size": "512"}, {"size": "256"}]}}}, "dtype": {"type": "DT_FLOAT"}}}, {"name": "model_57/tf.math.add_262/Add/y", "op": "Const", "attr": {"value": {"tensor": {"dtype": "DT_FLOAT", "tensorShape": {"dim": [{"size": "256"}]}}}, "dtype": {"type": "DT_FLOAT"}}}, {"name": "model_57/tf.compat.v1.nn.depthwise_conv2d_11/depthwise/filter_in", "op": "Const", "attr": {"value": {"tensor": {"dtype": "DT_FLOAT", "tensorShape": {"dim": [{"size": "3"}, {"size": "3"}, {"size": "256"}, {"size": "1"}]}}}, "dtype": {"type": "DT_FLOAT"}}}, {"name": "model_57/tf.math.add_264/Add/y", "op": "Const", "attr": {"value": {"tensor": {"dtype": "DT_FLOAT", "tensorShape": {"dim": [{"size": "256"}]}}}, "dtype": {"type": "DT_FLOAT"}}}, {"name": "model_57/tf.nn.convolution_696/convolution/filter", "op": "Const", "attr": {"value": {"tensor": {"dtype": "DT_FLOAT", "tensorShape": {"dim": [{"size": "1"}, {"size": "1"}, {"size": "256"}, {"size": "256"}]}}}, "dtype": {"type": "DT_FLOAT"}}}, {"name": "model_57/tf.math.add_265/Add/y", "op": "Const", "attr": {"value": {"tensor": {"dtype": "DT_FLOAT", "tensorShape": {"dim": [{"size": "256"}]}}}, "dtype": {"type": "DT_FLOAT"}}}, {"name": "model_57/tf.nn.convolution_697/convolution/filter", "op": "Const", "attr": {"value": {"tensor": {"dtype": "DT_FLOAT", "tensorShape": {"dim": [{"size": "1"}, {"size": "1"}, {"size": "256"}, {"size": "80"}]}}}, "dtype": {"type": "DT_FLOAT"}}}, {"name": "model_57/tf.math.add_266/Add/y", "op": "Const", "attr": {"value": {"tensor": {"dtype": "DT_FLOAT", "tensorShape": {"dim": [{"size": "80"}]}}}, "dtype": {"type": "DT_FLOAT"}}}, {"name": "model_57/tf.concat_56/concat/axis", "op": "Const", "attr": {"value": {"tensor": {"dtype": "DT_INT32", "tensorShape": {}}}, "dtype": {"type": "DT_INT32"}}}, {"name": "model_57/tf.compat.v1.transpose_288/transpose/perm", "op": "Const", "attr": {"value": {"tensor": {"dtype": "DT_INT32", "tensorShape": {"dim": [{"size": "4"}]}}}, "dtype": {"type": "DT_INT32"}}}, {"name": "model_57/tf.reshape_41/Reshape/shape", "op": "Const", "attr": {"value": {"tensor": {"dtype": "DT_INT32", "tensorShape": {"dim": [{"size": "3"}]}}}, "dtype": {"type": "DT_INT32"}}}, {"name": "model_57/tf.concat_57/concat/axis", "op": "Const", "attr": {"value": {"tensor": {"dtype": "DT_INT32", "tensorShape": {}}}, "dtype": {"type": "DT_INT32"}}}, {"name": "model_57/tf.strided_slice_47/StridedSlice/begin", "op": "Const", "attr": {"value": {"tensor": {"dtype": "DT_INT32", "tensorShape": {"dim": [{"size": "3"}]}}}, "dtype": {"type": "DT_INT32"}}}, {"name": "model_57/tf.strided_slice_47/StridedSlice/end", "op": "Const", "attr": {"value": {"tensor": {"dtype": "DT_INT32", "tensorShape": {"dim": [{"size": "3"}]}}}, "dtype": {"type": "DT_INT32"}}}, {"name": "model_57/tf.strided_slice_47/ones_like", "op": "Const", "attr": {"value": {"tensor": {"dtype": "DT_INT32", "tensorShape": {"dim": [{"size": "3"}]}}}, "dtype": {"type": "DT_INT32"}}}, {"name": "model_57/output0/concat/axis", "op": "Const", "attr": {"value": {"tensor": {"dtype": "DT_INT32", "tensorShape": {}}}, "dtype": {"type": "DT_INT32"}}}, {"name": "x", "op": "Placeholder", "attr": {"shape": {"shape": {"dim": [{"size": "1"}, {"size": "640"}, {"size": "640"}, {"size": "3"}]}}, "dtype": {"type": "DT_FLOAT"}}}, {"name": "model_57/tf.compat.v1.pad_7/Pad", "op": "Pad", "input": ["x", "model_57/tf.compat.v1.pad_7/Pad/paddings"], "attr": {"Tpaddings": {"type": "DT_INT32"}, "T": {"type": "DT_FLOAT"}}}, {"name": "model_57/tf.math.add_117/Add", "op": "_FusedConv2D", "input": ["model_57/tf.compat.v1.pad_7/Pad", "model_57/tf.nn.convolution_337/convolution/filter", "model_57/tf.math.add_117/Add/y"], "device": "/device:CPU:0", "attr": {"num_host_args": {"i": "0"}, "data_format": {"s": "TkhXQw=="}, "filter_format": {"s": "SFdJTw=="}, "fused_ops": {"list": {"s": ["Qmlhc0FkZA=="]}}, "num_args": {"i": "1"}, "strides": {"list": {"i": ["1", "2", "2", "1"]}}, "TArgs": {"list": {"type": ["DT_FLOAT"]}}, "padding": {"s": "VkFMSUQ="}, "use_cudnn_on_gpu": {"b": true}, "leakyrelu_alpha": {"f": 0.2}, "epsilon": {"f": 0.0}, "T": {"type": "DT_FLOAT"}, "explicit_paddings": {"list": {}}, "dilations": {"list": {"i": ["1", "1", "1", "1"]}}}}, {"name": "model_57/tf.math.sigmoid_78/Sigmoid", "op": "Sigmoid", "input": ["model_57/tf.math.add_117/Add"], "attr": {"T": {"type": "DT_FLOAT"}}}, {"name": "model_57/tf.math.multiply_355/Mul", "op": "Mul", "input": ["model_57/tf.math.add_117/Add", "model_57/tf.math.sigmoid_78/Sigmoid"], "attr": {"T": {"type": "DT_FLOAT"}}}, {"name": "model_57/tf.compat.v1.pad_8/Pad", "op": "Pad", "input": ["model_57/tf.math.multiply_355/Mul", "model_57/tf.compat.v1.pad_8/Pad/paddings"], "attr": {"Tpaddings": {"type": "DT_INT32"}, "T": {"type": "DT_FLOAT"}}}, {"name": "model_57/tf.math.add_118/Add", "op": "_FusedConv2D", "input": ["model_57/tf.compat.v1.pad_8/Pad", "model_57/tf.nn.convolution_338/convolution/filter", "model_57/tf.math.add_118/Add/y"], "device": "/device:CPU:0", "attr": {"num_host_args": {"i": "0"}, "data_format": {"s": "TkhXQw=="}, "filter_format": {"s": "SFdJTw=="}, "fused_ops": {"list": {"s": ["Qmlhc0FkZA=="]}}, "num_args": {"i": "1"}, "strides": {"list": {"i": ["1", "2", "2", "1"]}}, "TArgs": {"list": {"type": ["DT_FLOAT"]}}, "padding": {"s": "VkFMSUQ="}, "use_cudnn_on_gpu": {"b": true}, "leakyrelu_alpha": {"f": 0.2}, "epsilon": {"f": 0.0}, "T": {"type": "DT_FLOAT"}, "explicit_paddings": {"list": {}}, "dilations": {"list": {"i": ["1", "1", "1", "1"]}}}}, {"name": "model_57/tf.math.sigmoid_79/Sigmoid", "op": "Sigmoid", "input": ["model_57/tf.math.add_118/Add"], "attr": {"T": {"type": "DT_FLOAT"}}}, {"name": "model_57/tf.math.multiply_359/Mul", "op": "Mul", "input": ["model_57/tf.math.add_118/Add", "model_57/tf.math.sigmoid_79/Sigmoid"], "attr": {"T": {"type": "DT_FLOAT"}}}, {"name": "model_57/tf.math.add_119/Add", "op": "_FusedConv2D", "input": ["model_57/tf.math.multiply_359/Mul", "model_57/tf.nn.convolution_339/convolution/filter", "model_57/tf.math.add_119/Add/y"], "device": "/device:CPU:0", "attr": {"num_host_args": {"i": "0"}, "data_format": {"s": "TkhXQw=="}, "filter_format": {"s": "SFdJTw=="}, "strides": {"list": {"i": ["1", "1", "1", "1"]}}, "num_args": {"i": "1"}, "fused_ops": {"list": {"s": ["Qmlhc0FkZA=="]}}, "TArgs": {"list": {"type": ["DT_FLOAT"]}}, "padding": {"s": "U0FNRQ=="}, "use_cudnn_on_gpu": {"b": true}, "leakyrelu_alpha": {"f": 0.2}, "epsilon": {"f": 0.0}, "T": {"type": "DT_FLOAT"}, "explicit_paddings": {"list": {}}, "dilations": {"list": {"i": ["1", "1", "1", "1"]}}}}, {"name": "model_57/tf.math.sigmoid_80/Sigmoid", "op": "Sigmoid", "input": ["model_57/tf.math.add_119/Add"], "attr": {"T": {"type": "DT_FLOAT"}}}, {"name": "model_57/tf.math.multiply_363/Mul", "op": "Mul", "input": ["model_57/tf.math.add_119/Add", "model_57/tf.math.sigmoid_80/Sigmoid"], "attr": {"T": {"type": "DT_FLOAT"}}}, {"name": "model_57/tf.strided_slice_25/StridedSlice", "op": "StridedSlice", "input": ["model_57/tf.math.multiply_363/Mul", "model_57/tf.strided_slice_25/ones_like/tensor", "model_57/tf.strided_slice_25/StridedSlice/end", "model_57/tf.strided_slice_25/ones_like"], "attr": {"shrink_axis_mask": {"i": "0"}, "Index": {"type": "DT_INT64"}, "new_axis_mask": {"i": "0"}, "begin_mask": {"i": "15"}, "end_mask": {"i": "7"}, "T": {"type": "DT_FLOAT"}, "ellipsis_mask": {"i": "0"}}}, {"name": "model_57/tf.strided_slice_26/StridedSlice", "op": "StridedSlice", "input": ["model_57/tf.math.multiply_363/Mul", "model_57/tf.strided_slice_26/ones_like/tensor", "model_57/tf.strided_slice_26/StridedSlice/end", "model_57/tf.strided_slice_26/ones_like"], "attr": {"shrink_axis_mask": {"i": "0"}, "Index": {"type": "DT_INT64"}, "new_axis_mask": {"i": "0"}, "begin_mask": {"i": "7"}, "T": {"type": "DT_FLOAT"}, "end_mask": {"i": "7"}, "ellipsis_mask": {"i": "0"}}}, {"name": "model_57/tf.math.add_120/Add", "op": "_FusedConv2D", "input": ["model_57/tf.strided_slice_26/StridedSlice", "model_57/tf.nn.convolution_340/convolution/filter", "model_57/tf.math.add_120/Add/y"], "device": "/device:CPU:0", "attr": {"num_host_args": {"i": "0"}, "data_format": {"s": "TkhXQw=="}, "filter_format": {"s": "SFdJTw=="}, "strides": {"list": {"i": ["1", "1", "1", "1"]}}, "num_args": {"i": "1"}, "fused_ops": {"list": {"s": ["Qmlhc0FkZA=="]}}, "TArgs": {"list": {"type": ["DT_FLOAT"]}}, "padding": {"s": "U0FNRQ=="}, "use_cudnn_on_gpu": {"b": true}, "leakyrelu_alpha": {"f": 0.2}, "epsilon": {"f": 0.0}, "T": {"type": "DT_FLOAT"}, "explicit_paddings": {"list": {}}, "dilations": {"list": {"i": ["1", "1", "1", "1"]}}}}, {"name": "model_57/tf.math.add_121/Add", "op": "_FusedConv2D", "input": ["model_57/tf.strided_slice_26/StridedSlice", "model_57/tf.nn.convolution_341/convolution/filter", "model_57/tf.math.add_121/Add/y"], "device": "/device:CPU:0", "attr": {"num_host_args": {"i": "0"}, "data_format": {"s": "TkhXQw=="}, "filter_format": {"s": "SFdJTw=="}, "strides": {"list": {"i": ["1", "1", "1", "1"]}}, "num_args": {"i": "1"}, "fused_ops": {"list": {"s": ["Qmlhc0FkZA=="]}}, "TArgs": {"list": {"type": ["DT_FLOAT"]}}, "padding": {"s": "U0FNRQ=="}, "use_cudnn_on_gpu": {"b": true}, "leakyrelu_alpha": {"f": 0.2}, "epsilon": {"f": 0.0}, "T": {"type": "DT_FLOAT"}, "explicit_paddings": {"list": {}}, "dilations": {"list": {"i": ["1", "1", "1", "1"]}}}}, {"name": "model_57/tf.math.sigmoid_81/Sigmoid", "op": "Sigmoid", "input": ["model_57/tf.math.add_120/Add"], "attr": {"T": {"type": "DT_FLOAT"}}}, {"name": "model_57/tf.math.sigmoid_82/Sigmoid", "op": "Sigmoid", "input": ["model_57/tf.math.add_121/Add"], "attr": {"T": {"type": "DT_FLOAT"}}}, {"name": "model_57/tf.math.multiply_367/Mul", "op": "Mul", "input": ["model_57/tf.math.add_120/Add", "model_57/tf.math.sigmoid_81/Sigmoid"], "attr": {"T": {"type": "DT_FLOAT"}}}, {"name": "model_57/tf.math.multiply_371/Mul", "op": "Mul", "input": ["model_57/tf.math.add_121/Add", "model_57/tf.math.sigmoid_82/Sigmoid"], "attr": {"T": {"type": "DT_FLOAT"}}}, {"name": "model_57/tf.math.add_122/Add", "op": "_FusedConv2D", "input": ["model_57/tf.math.multiply_367/Mul", "model_57/tf.nn.convolution_342/convolution/filter", "model_57/tf.math.add_122/Add/y"], "device": "/device:CPU:0", "attr": {"num_host_args": {"i": "0"}, "data_format": {"s": "TkhXQw=="}, "filter_format": {"s": "SFdJTw=="}, "strides": {"list": {"i": ["1", "1", "1", "1"]}}, "num_args": {"i": "1"}, "fused_ops": {"list": {"s": ["Qmlhc0FkZA=="]}}, "TArgs": {"list": {"type": ["DT_FLOAT"]}}, "padding": {"s": "U0FNRQ=="}, "use_cudnn_on_gpu": {"b": true}, "leakyrelu_alpha": {"f": 0.2}, "epsilon": {"f": 0.0}, "T": {"type": "DT_FLOAT"}, "explicit_paddings": {"list": {}}, "dilations": {"list": {"i": ["1", "1", "1", "1"]}}}}, {"name": "model_57/tf.math.sigmoid_83/Sigmoid", "op": "Sigmoid", "input": ["model_57/tf.math.add_122/Add"], "attr": {"T": {"type": "DT_FLOAT"}}}, {"name": "model_57/tf.math.multiply_375/Mul", "op": "Mul", "input": ["model_57/tf.math.add_122/Add", "model_57/tf.math.sigmoid_83/Sigmoid"], "attr": {"T": {"type": "DT_FLOAT"}}}, {"name": "model_57/tf.math.add_123/Add", "op": "_FusedConv2D", "input": ["model_57/tf.math.multiply_375/Mul", "model_57/tf.nn.convolution_343/convolution/filter", "model_57/tf.math.add_123/Add/y"], "device": "/device:CPU:0", "attr": {"num_host_args": {"i": "0"}, "data_format": {"s": "TkhXQw=="}, "filter_format": {"s": "SFdJTw=="}, "fused_ops": {"list": {"s": ["Qmlhc0FkZA=="]}}, "num_args": {"i": "1"}, "strides": {"list": {"i": ["1", "1", "1", "1"]}}, "TArgs": {"list": {"type": ["DT_FLOAT"]}}, "padding": {"s": "U0FNRQ=="}, "use_cudnn_on_gpu": {"b": true}, "leakyrelu_alpha": {"f": 0.2}, "epsilon": {"f": 0.0}, "T": {"type": "DT_FLOAT"}, "explicit_paddings": {"list": {}}, "dilations": {"list": {"i": ["1", "1", "1", "1"]}}}}, {"name": "model_57/tf.math.sigmoid_84/Sigmoid", "op": "Sigmoid", "input": ["model_57/tf.math.add_123/Add"], "attr": {"T": {"type": "DT_FLOAT"}}}, {"name": "model_57/tf.math.multiply_379/Mul", "op": "Mul", "input": ["model_57/tf.math.add_123/Add", "model_57/tf.math.sigmoid_84/Sigmoid"], "attr": {"T": {"type": "DT_FLOAT"}}}, {"name": "model_57/tf.math.add_125/Add", "op": "AddV2", "input": ["model_57/tf.math.multiply_367/Mul", "model_57/tf.math.multiply_379/Mul"], "attr": {"T": {"type": "DT_FLOAT"}}}, {"name": "model_57/tf.math.add_126/Add", "op": "_FusedConv2D", "input": ["model_57/tf.math.add_125/Add", "model_57/tf.nn.convolution_344/convolution/filter", "model_57/tf.math.add_126/Add/y"], "device": "/device:CPU:0", "attr": {"num_host_args": {"i": "0"}, "data_format": {"s": "TkhXQw=="}, "filter_format": {"s": "SFdJTw=="}, "fused_ops": {"list": {"s": ["Qmlhc0FkZA=="]}}, "num_args": {"i": "1"}, "strides": {"list": {"i": ["1", "1", "1", "1"]}}, "TArgs": {"list": {"type": ["DT_FLOAT"]}}, "padding": {"s": "U0FNRQ=="}, "use_cudnn_on_gpu": {"b": true}, "leakyrelu_alpha": {"f": 0.2}, "epsilon": {"f": 0.0}, "T": {"type": "DT_FLOAT"}, "explicit_paddings": {"list": {}}, "dilations": {"list": {"i": ["1", "1", "1", "1"]}}}}, {"name": "model_57/tf.math.sigmoid_85/Sigmoid", "op": "Sigmoid", "input": ["model_57/tf.math.add_126/Add"], "attr": {"T": {"type": "DT_FLOAT"}}}, {"name": "model_57/tf.math.multiply_385/Mul", "op": "Mul", "input": ["model_57/tf.math.add_126/Add", "model_57/tf.math.sigmoid_85/Sigmoid"], "attr": {"T": {"type": "DT_FLOAT"}}}, {"name": "model_57/tf.math.add_127/Add", "op": "_FusedConv2D", "input": ["model_57/tf.math.multiply_385/Mul", "model_57/tf.nn.convolution_345/convolution/filter", "model_57/tf.math.add_127/Add/y"], "device": "/device:CPU:0", "attr": {"num_host_args": {"i": "0"}, "data_format": {"s": "TkhXQw=="}, "filter_format": {"s": "SFdJTw=="}, "fused_ops": {"list": {"s": ["Qmlhc0FkZA=="]}}, "num_args": {"i": "1"}, "strides": {"list": {"i": ["1", "1", "1", "1"]}}, "TArgs": {"list": {"type": ["DT_FLOAT"]}}, "padding": {"s": "U0FNRQ=="}, "use_cudnn_on_gpu": {"b": true}, "leakyrelu_alpha": {"…
pe": [4], "dtype": "int32"}, {"name": "model_57/tf.nn.convolution_653/convolution/filter", "shape": [1, 1, 128, 64], "dtype": "float32"}, {"name": "model_57/tf.math.add_204/Add/y", "shape": [64], "dtype": "float32"}, {"name": "model_57/tf.concat_44/concat/axis", "shape": [], "dtype": "int32"}, {"name": "model_57/tf.nn.convolution_658/convolution/filter", "shape": [1, 1, 128, 128], "dtype": "float32"}, {"name": "model_57/tf.math.add_213/Add/y", "shape": [128], "dtype": "float32"}, {"name": "model_57/tf.concat_45/concat/axis", "shape": [], "dtype": "int32"}, {"name": "model_57/tf.nn.convolution_659/convolution/filter", "shape": [1, 1, 384, 256], "dtype": "float32"}, {"name": "model_57/tf.math.add_214/Add/y", "shape": [256], "dtype": "float32"}, {"name": "model_57/tf.compat.v1.pad_12/Pad/paddings", "shape": [4, 2], "dtype": "int32"}, {"name": "model_57/tf.nn.convolution_660/convolution/filter", "shape": [3, 3, 256, 256], "dtype": "float32"}, {"name": "model_57/tf.math.add_215/Add/y", "shape": [256], "dtype": "float32"}, {"name": "model_57/tf.strided_slice_38/ones_like/tensor", "shape": [4], "dtype": "int32"}, {"name": "model_57/tf.strided_slice_38/StridedSlice/end", "shape": [4], "dtype": "int32"}, {"name": "model_57/tf.strided_slice_38/ones_like", "shape": [4], "dtype": "int32"}, {"name": "model_57/tf.nn.convolution_643/convolution/filter", "shape": [1, 1, 256, 128], "dtype": "float32"}, {"name": "model_57/tf.math.add_190/Add/y", "shape": [128], "dtype": "float32"}, {"name": "model_57/tf.nn.convolution_645/convolution/filter", "shape": [3, 3, 128, 128], "dtype": "float32"}, {"name": "model_57/tf.math.add_192/Add/y", "shape": [128], "dtype": "float32"}, {"name": "model_57/tf.nn.convolution_646/convolution/filter", "shape": [3, 3, 128, 128], "dtype": "float32"}, {"name": "model_57/tf.math.add_193/Add/y", "shape": [128], "dtype": "float32"}, {"name": "model_57/tf.nn.convolution_647/convolution/filter", "shape": [3, 3, 128, 128], "dtype": "float32"}, {"name": "model_57/tf.math.add_196/Add/y", "shape": [128], "dtype": "float32"}, {"name": "model_57/tf.nn.convolution_648/convolution/filter", "shape": [3, 3, 128, 128], "dtype": "float32"}, {"name": "model_57/tf.math.add_197/Add/y", "shape": [128], "dtype": "float32"}, {"name": "model_57/tf.image.resize_2/resize/size", "shape": [2], "dtype": "int32"}, {"name": "model_57/tf.concat_40/concat/axis", "shape": [], "dtype": "int32"}, {"name": "model_57/tf.nn.convolution_642/convolution/filter", "shape": [1, 1, 1024, 512], "dtype": "float32"}, {"name": "model_57/tf.math.add_189/Add/y", "shape": [512], "dtype": "float32"}, {"name": "model_57/tf.strided_slice_39/ones_like/tensor", "shape": [4], "dtype": "int32"}, {"name": "model_57/tf.strided_slice_39/StridedSlice/end", "shape": [4], "dtype": "int32"}, {"name": "model_57/tf.strided_slice_39/ones_like", "shape": [4], "dtype": "int32"}, {"name": "model_57/tf.nn.convolution_644/convolution/filter", "shape": [1, 1, 256, 128], "dtype": "float32"}, {"name": "model_57/tf.math.add_191/Add/y", "shape": [128], "dtype": "float32"}, {"name": "model_57/tf.concat_41/concat/axis", "shape": [], "dtype": "int32"}, {"name": "model_57/tf.nn.convolution_649/convolution/filter", "shape": [1, 1, 256, 256], "dtype": "float32"}, {"name": "model_57/tf.math.add_200/Add/y", "shape": [256], "dtype": "float32"}, {"name": "model_57/tf.concat_42/concat/axis", "shape": [], "dtype": "int32"}, {"name": "model_57/tf.nn.convolution_650/convolution/filter", "shape": [1, 1, 768, 512], "dtype": "float32"}, {"name": "model_57/tf.math.add_201/Add/y", "shape": [512], "dtype": "float32"}, {"name": "model_57/tf.concat_46/concat/axis", "shape": [], "dtype": "int32"}, {"name": "model_57/tf.nn.convolution_664/convolution/filter", "shape": [1, 1, 768, 512], "dtype": "float32"}, {"name": "model_57/tf.math.add_220/Add/y", "shape": [512], "dtype": "float32"}, {"name": "model_57/tf.strided_slice_43/ones_like/tensor", "shape": [4], "dtype": "int32"}, {"name": "model_57/tf.strided_slice_43/StridedSlice/end", "shape": [4], "dtype": "int32"}, {"name": "model_57/tf.strided_slice_43/ones_like", "shape": [4], "dtype": "int32"}, {"name": "model_57/tf.nn.convolution_667/convolution/filter", "shape": [1, 1, 256, 128], "dtype": "float32"}, {"name": "model_57/tf.math.add_224/Add/y", "shape": [128], "dtype": "float32"}, {"name": "model_57/tf.concat_50/concat/axis", "shape": [], "dtype": "int32"}, {"name": "model_57/tf.nn.convolution_674/convolution/filter", "shape": [1, 1, 256, 256], "dtype": "float32"}, {"name": "model_57/tf.math.add_235/Add/y", "shape": [256], "dtype": "float32"}, {"name": "model_57/tf.concat_51/concat/axis", "shape": [], "dtype": "int32"}, {"name": "model_57/tf.nn.convolution_675/convolution/filter", "shape": [1, 1, 768, 512], "dtype": "float32"}, {"name": "model_57/tf.math.add_236/Add/y", "shape": [512], "dtype": "float32"}, {"name": "model_57/tf.compat.v1.pad_13/Pad/paddings", "shape": [4, 2], "dtype": "int32"}, {"name": "model_57/tf.nn.convolution_676/convolution/filter", "shape": [3, 3, 512, 512], "dtype": "float32"}, {"name": "model_57/tf.math.add_237/Add/y", "shape": [512], "dtype": "float32"}, {"name": "model_57/tf.strided_slice_33/StridedSlice/begin", "shape": [4], "dtype": "int32"}, {"name": "model_57/tf.strided_slice_33/StridedSlice/end", "shape": [4], "dtype": "int32"}, {"name": "model_57/tf.strided_slice_33/ones_like", "shape": [4], "dtype": "int32"}, {"name": "model_57/tf.math.add_185/Add/y", "shape": [256], "dtype": "float32"}, {"name": "model_57/tf.math.add_178/Add/y", "shape": [256], "dtype": "float32"}, {"name": "model_57/tf.strided_slice_35/StridedSlice/begin", "shape": [4], "dtype": "int32"}, {"name": "model_57/tf.strided_slice_35/StridedSlice/end", "shape": [4], "dtype": "int32"}, {"name": "model_57/tf.strided_slice_35/ones_like", "shape": [4], "dtype": "int32"}, {"name": "model_57/tf.strided_slice_36/StridedSlice/begin", "shape": [4], "dtype": "int32"}, {"name": "model_57/tf.strided_slice_36/StridedSlice/end", "shape": [4], "dtype": "int32"}, {"name": "model_57/tf.strided_slice_36/ones_like", "shape": [4], "dtype": "int32"}, {"name": "model_57/tf.math.multiply_546/Mul/y", "shape": [], "dtype": "float32"}, {"name": "model_57/tf.reshape_32/Reshape/shape", "shape": [4], "dtype": "int32"}, {"name": "model_57/tf.compat.v1.transpose_206/transpose/perm", "shape": [4], "dtype": "int32"}, {"name": "model_57/tf.nn.convolution_382/convolution/filter", "shape": [3, 3, 1, 1], "dtype": "float32"}, {"name": "model_57/tf.nn.convolution_383/convolution/filter", "shape": [3, 3, 1, 1], "dtype": "float32"}, {"name": "model_57/tf.nn.convolution_384/convolution/filter", "shape": [3, 3, 1, 1], "dtype": "float32"}, {"name": "model_57/tf.nn.convolution_385/convolution/filter", "shape": [3, 3, 1, 1], "dtype": "float32"}, {"name": "model_57/tf.nn.convolution_386/convolution/filter", "shape": [3, 3, 1, 1], "dtype": "float32"}, {"name": "model_57/tf.nn.convolution_387/convolution/filter", "shape": [3, 3, 1, 1], "dtype": "float32"}, {"name": "model_57/tf.nn.convolution_388/convolution/filter", "shape": [3, 3, 1, 1], "dtype": "float32"}, {"name": "model_57/tf.nn.convolution_389/convolution/filter", "shape": [3, 3, 1, 1], "dtype": "float32"}, {"name": "model_57/tf.nn.convolution_390/convolution/filter", "shape": [3, 3, 1, 1], "dtype": "float32"}, {"name": "model_57/tf.nn.convolution_391/convolution/filter", "shape": [3, 3, 1, 1], "dtype": "float32"}, {"name": "model_57/tf.nn.convolution_392/convolution/filter", "shape": [3, 3, 1, 1], "dtype": "float32"}, {"name": "model_57/tf.nn.convolution_393/convolution/filter", "shape": [3, 3, 1, 1], "dtype": "float32"}, {"name": "model_57/tf.nn.convolution_394/convolution/filter", "shape": [3, 3, 1, 1], "dtype": "float32"}, {"name": "model_57/tf.nn.convolution_395/convolution/filter", "shape": [3, 3, 1, 1], "dtype": "float32"}, {"name": "model_57/tf.nn.convolution_396/convolution/filter", "shape": [3, 3, 1, 1], "dtype": "float32"}, {"name": "model_57/tf.nn.convolution_397/convolution/filter", "shape": [3, 3, 1, 1], "dtype": "float32"}, {"name": "model_57/tf.nn.convolution_398/convolution/filter", "shape": [3, 3, 1, 1], "dtype": "float32"}, {"name": "model_57/tf.nn.convolution_399/convolution/filter", "shape": [3, 3, 1, 1], "dtype": "float32"}, {"name": "model_57/tf.nn.convolution_400/convolution/filter", "shape": [3, 3, 1, 1], "dtype": "float32"}, {"name": "model_57/tf.nn.convolution_401/convolution/filter", "shape": [3, 3, 1, 1], "dtype": "float32"}, {"name": "model_57/tf.nn.convolution_402/convolution/filter", "shape": [3, 3, 1, 1], "dtype": "float32"}, {"name": "model_57/tf.nn.convolution_403/convolution/filter", "shape": [3, 3, 1, 1], "dtype": "float32"}, {"name": "model_57/tf.nn.convolution_404/convolution/filter", "shape": [3, 3, 1, 1], "dtype": "float32"}, {"name": "model_57/tf.nn.convolution_405/convolution/filter", "shape": [3, 3, 1, 1], "dtype": "float32"}, {"name": "model_57/tf.nn.convolution_406/convolution/filter", "shape": [3, 3, 1, 1], "dtype": "float32"}, {"name": "model_57/tf.nn.convolution_407/convolution/filter", "shape": [3, 3, 1, 1], "dtype": "float32"}, {"name": "model_57/tf.nn.convolution_408/convolution/filter", "shape": [3, 3, 1, 1], "dtype": "float32"}, {"name": "model_57/tf.nn.convolution_409/convolution/filter", "shape": [3, 3, 1, 1], "dtype": "float32"}, {"name": "model_57/tf.nn.convolution_410/convolution/filter", "shape": [3, 3, 1, 1], "dtype": "float32"}, {"name": "model_57/tf.nn.convolution_411/convolution/filter", "shape": [3, 3, 1, 1], "dtype": "float32"}, {"name": "model_57/tf.nn.convolution_412/convolution/filter", "shape": [3, 3, 1, 1], "dtype": "float32"}, {"name": "model_57/tf.nn.convolution_413/convolution/filter", "shape": [3, 3, 1, 1], "dtype": "float32"}, {"name": "model_57/tf.nn.convolution_414/convolution/filter", "shape": [3, 3, 1, 1], "dtype": "float32"}, {"name": "model_57/tf.nn.convolution_415/convolution/filter", "shape": [3, 3, 1, 1], "dtype": "float32"}, {"name": "model_57/tf.nn.convolution_416/convolution/filter", "shape": [3, 3, 1, 1], "dtype": "float32"}, {"name": "model_57/tf.nn.convolution_417/convolution/filter", "shape": [3, 3, 1, 1], "dtype": "float32"}, {"name": "model_57/tf.nn.convolution_418/convolution/filter", "shape": [3, 3, 1, 1], "dtype": "float32"}, {"name": "model_57/tf.nn.convolution_419/convolution/filter", "shape": [3, 3, 1, 1], "dtype": "float32"}, {"name": "model_57/tf.nn.convolution_420/convolution/filter", "shape": [3, 3, 1, 1], "dtype": "float32"}, {"name": "model_57/tf.nn.convolution_421/convolution/filter", "shape": [3, 3, 1, 1], "dtype": "float32"}, {"name": "model_57/tf.nn.convolution_422/convolution/filter", "shape": [3, 3, 1, 1], "dtype": "float32"}, {"name": "model_57/tf.nn.convolution_423/convolution/filter", "shape": [3, 3, 1, 1], "dtype": "float32"}, {"name": "model_57/tf.nn.convolution_424/convolution/filter", "shape": [3, 3, 1, 1], "dtype": "float32"}, {"name": "model_57/tf.nn.convolution_425/convolution/filter", "shape": [3, 3, 1, 1], "dtype": "float32"}, {"name": "model_57/tf.nn.convolution_426/convolution/filter", "shape": [3, 3, 1, 1], "dtype": "float32"}, {"name": "model_57/tf.nn.convolution_427/convolution/filter", "shape": [3, 3, 1, 1], "dtype": "float32"}, {"name": "model_57/tf.nn.convolution_428/convolution/filter", "shape": [3, 3, 1, 1], "dtype": "float32"}, {"name": "model_57/tf.nn.convolution_429/convolution/filter", "shape": [3, 3, 1, 1], "dtype": "float32"}, {"name": "model_57/tf.nn.convolution_430/convolution/filter", "shape": [3, 3, 1, 1], "dtype": "float32"}, {"name": "model_57/tf.nn.convolution_431/convolution/filter", "shape": [3, 3, 1, 1], "dtype": "float32"}, {"name": "model_57/tf.nn.convolution_432/convolution/filter", "shape": [3, 3, 1, 1], "dtype": "float32"}, {"name": "model_57/tf.nn.convolution_433/convolution/filter", "shape": [3, 3, 1, 1], "dtype": "float32"}, {"name": "model_57/tf.nn.convolution_434/convolution/filter", "shape": [3, 3, 1, 1], "dtype": "float32"}, {"name": "model_57/tf.nn.convolution_435/convolution/filter", "shape": [3, 3, 1, 1], "dtype": "float32"}, {"name": "model_57/tf.nn.convolution_436/convolution/filter", "shape": [3, 3, 1, 1], "dtype": "float32"}, {"name": "model_57/tf.nn.convolution_437/convolution/filter", "shape": [3, 3, 1, 1], "dtype": "float32"}, {"name": "model_57/tf.nn.convolution_438/convolution/filter", "shape": [3, 3, 1, 1], "dtype": "float32"}, {"name": "model_57/tf.nn.convolution_439/convolution/filter", "shape": [3, 3, 1, 1], "dtype": "float32"}, {"name": "model_57/tf.nn.convolution_440/convolution/filter", "shape": [3, 3, 1, 1], "dtype": "float32"}, {"name": "model_57/tf.nn.convolution_441/convolution/filter", "shape": [3, 3, 1, 1], "dtype": "float32"}, {"name": "model_57/tf.nn.convolution_442/convolution/filter", "shape": [3, 3, 1, 1], "dtype": "float32"}, {"name": "model_57/tf.nn.convolution_443/convolution/filter", "shape": [3, 3, 1, 1], "dtype": "float32"}, {"name": "model_57/tf.nn.convolution_444/convolution/filter", "shape": [3, 3, 1, 1], "dtype": "float32"}, {"name": "model_57/tf.nn.convolution_445/convolution/filter", "shape": [3, 3, 1, 1], "dtype": "float32"}, {"name": "model_57/tf.nn.convolution_446/convolution/filter", "shape": [3, 3, 1, 1], "dtype": "float32"}, {"name": "model_57/tf.nn.convolution_447/convolution/filter", "shape": [3, 3, 1, 1], "dtype": "float32"}, {"name": "model_57/tf.nn.convolution_448/convolution/filter", "shape": [3, 3, 1, 1], "dtype": "float32"}, {"name": "model_57/tf.nn.convolution_449/convolution/filter", "shape": [3, 3, 1, 1], "dtype": "float32"}, {"name": "model_57/tf.nn.convolution_450/convolution/filter", "shape": [3, 3, 1, 1], "dtype": "float32"}, {"name": "model_57/tf.nn.convolution_451/convolution/filter", "shape": [3, 3, 1, 1], "dtype": "float32"}, {"name": "model_57/tf.nn.convolution_452/convolution/filter", "shape": [3, 3, 1, 1], "dtype": "float32"}, {"name": "model_57/tf.nn.convolution_453/convolution/filter", "shape": [3, 3, 1, 1], "dtype": "float32"}, {"name": "model_57/tf.nn.convolution_454/convolution/filter", "shape": [3, 3, 1, 1], "dtype": "float32"}, {"name": "model_57/tf.nn.convolution_455/convolution/filter", "shape": [3, 3, 1, 1], "dtype": "float32"}, {"name": "model_57/tf.nn.convolution_456/convolution/filter", "shape": [3, 3, 1, 1], "dtype": "float32"}, {"name": "model_57/tf.nn.convolution_457/convolution/filter", "shape": [3, 3, 1, 1], "dtype": "float32"}, {"name": "model_57/tf.nn.convolution_458/convolution/filter", "shape": [3, 3, 1, 1], "dtype": "float32"}, {"name": "model_57/tf.nn.convolution_459/convolution/filter", "shape": [3, 3, 1, 1], "dtype": "float32"}, {"name": "model_57/tf.nn.convolution_460/convolution/filter", "shape": [3, 3, 1, 1], "dtype": "float32"}, {"name": "model_57/tf.nn.convolution_461/convolution/filter", "shape": [3, 3, 1, 1], "dtype": "float32"}, {"name": "model_57/tf.nn.convolution_462/convolution/filter", "shape": [3, 3, 1, 1], "dtype": "float32"}, {"name": "model_57/tf.nn.convolution_463/convolution/filter", "shape": [3, 3, 1, 1], "dtype": "float32"}, {"name": "model_57/tf.nn.convolution_464/convolution/filter", "shape": [3, 3, 1, 1], "dtype": "float32"}, {"name": "model_57/tf.nn.convolution_465/convolution/filter", "shape": [3, 3, 1, 1], "dtype": "float32"}, {"name": "model_57/tf.nn.convolution_466/convolution/filter", "shape": [3, 3, 1, 1], "dtype": "float32"}, {"name": "model_57/tf.nn.convolution_467/convolution/filter", "shape": [3, 3, 1, 1], "dtype": "float32"}, {"name": "model_57/tf.nn.convolution_468/convolution/filter", "shape": [3, 3, 1, 1], "dtype": "float32"}, {"name": "model_57/tf.nn.convolution_469/convolution/filter", "shape": [3, 3, 1, 1], "dtype": "float32"}, {"name": "model_57/tf.nn.convolution_470/convolution/filter", "shape": [3, 3, 1, 1], "dtype": "float32"}, {"name": "model_57/tf.nn.convolution_471/convolution/filter", "shape": [3, 3, 1, 1], "dtype": "float32"}, {"name": "model_57/tf.nn.convolution_472/convolution/filter", "shape": [3, 3, 1, 1], "dtype": "float32"}, {"name": "model_57/tf.nn.convolution_473/convolution/filter", "shape": [3, 3, 1, 1], "dtype": "float32"}, {"name": "model_57/tf.nn.convolution_474/convolution/filter", "shape": [3, 3, 1, 1], "dtype": "float32"}, {"name": "model_57/tf.nn.convolution_475/convolution/filter", "shape": [3, 3, 1, 1], "dtype": "float32"}, {"name": "model_57/tf.nn.convolution_476/convolution/filter", "shape": [3, 3, 1, 1], "dtype": "float32"}, {"name": "model_57/tf.nn.convolution_477/convolution/filter", "shape": [3, 3, 1, 1], "dtype": "float32"}, {"name": "model_57/tf.nn.convolution_478/convolution/filter", "shape": [3, 3, 1, 1], "dtype": "float32"}, {"name": "model_57/tf.nn.convolution_479/convolution/filter", "shape": [3, 3, 1, 1], "dtype": "float32"}, {"name": "model_57/tf.nn.convolution_480/convolution/filter", "shape": [3, 3, 1, 1], "dtype": "float32"}, {"name": "model_57/tf.nn.convolution_481/convolution/filter", "shape": [3, 3, 1, 1], "dtype": "float32"}, {"name": "model_57/tf.nn.convolution_482/convolution/filter", "shape": [3, 3, 1, 1], "dtype": "float32"}, {"name": "model_57/tf.nn.convolution_483/convolution/filter", "shape": [3, 3, 1, 1], "dtype": "float32"}, {"name": "model_57/tf.nn.convolution_484/convolution/filter", "shape": [3, 3, 1, 1], "dtype": "float32"}, {"name": "model_57/tf.nn.convolution_485/convolution/filter", "shape": [3, 3, 1, 1], "dtype": "float32"}, {"name": "model_57/tf.nn.convolution_486/convolution/filter", "shape": [3, 3, 1, 1], "dtype": "float32"}, {"name": "model_57/tf.nn.convolution_487/convolution/filter", "shape": [3, 3, 1, 1], "dtype": "float32"}, {"name": "model_57/tf.nn.convolution_488/convolution/filter", "shape": [3, 3, 1, 1], "dtype": "float32"}, {"name": "model_57/tf.nn.convolution_489/convolution/filter", "shape": [3, 3, 1, 1], "dtype": "float32"}, {"name": "model_57/tf.nn.convolution_490/convolution/filter", "shape": [3, 3, 1, 1], "dtype": "float32"}, {"name": "model_57/tf.nn.convolution_491/convolution/filter", "shape": [3, 3, 1, 1], "dtype": "float32"}, {"name": "model_57/tf.nn.convolution_492/convolution/filter", "shape": [3, 3, 1, 1], "dtype": "float32"}, {"name": "model_57/tf.nn.convolution_493/convolution/filter", "shape": [3, 3, 1, 1], "dtype": "float32"}, {"name": "model_57/tf.nn.convolution_494/convolution/filter", "shape": [3, 3, 1, 1], "dtype": "float32"}, {"name": "model_57/tf.nn.convolution_495/convolution/filter", "shape": [3, 3, 1, 1], "dtype": "float32"}, {"name": "model_57/tf.nn.convolution_496/convolution/filter", "shape": [3, 3, 1, 1], "dtype": "float32"}, {"name": "model_57/tf.nn.convolution_497/convolution/filter", "shape": [3, 3, 1, 1], "dtype": "float32"}, {"name": "model_57/tf.nn.convolution_498/convolution/filter", "shape": [3, 3, 1, 1], "dtype": "float32"}, {"name": "model_57/tf.nn.convolution_499/convolution/filter", "shape": [3, 3, 1, 1], "dtype": "float32"}, {"name": "model_57/tf.nn.convolution_500/convolution/filter", "shape": [3, 3, 1, 1], "dtype": "float32"}, {"name": "model_57/tf.nn.convolution_501/convolution/filter", "shape": [3, 3, 1, 1], "dtype": "float32"}, {"name": "model_57/tf.nn.convolution_502/convolution/filter", "shape": [3, 3, 1, 1], "dtype": "float32"}, {"name": "model_57/tf.nn.convolution_503/convolution/filter", "shape": [3, 3, 1, 1], "dtype": "float32"}, {"name": "model_57/tf.nn.convolution_504/convolution/filter", "shape": [3, 3, 1, 1], "dtype": "float32"}, {"name": "model_57/tf.nn.convolution_505/convolution/filter", "shape": [3, 3, 1, 1], "dtype": "float32"}, {"name": "model_57/tf.nn.convolution_506/convolution/filter", "shape": [3, 3, 1, 1], "dtype": "float32"}, {"name": "model_57/tf.nn.convolution_507/convolution/filter", "shape": [3, 3, 1, 1], "dtype": "float32"}, {"name": "model_57/tf.nn.convolution_508/convolution/filter", "shape": [3, 3, 1, 1], "dtype": "float32"}, {"name": "model_57/tf.nn.convolution_509/convolution/filter", "shape": [3, 3, 1, 1], "dtype": "float32"}, {"name": "model_57/tf.nn.convolution_510/convolution/filter", "shape": [3, 3, 1, 1], "dtype": "float32"}, {"name": "model_57/tf.nn.convolution_511/convolution/filter", "shape": [3, 3, 1, 1], "dtype": "float32"}, {"name": "model_57/tf.nn.convolution_512/convolution/filter", "shape": [3, 3, 1, 1], "dtype": "float32"}, {"name": "model_57/tf.nn.convolution_513/convolution/filter", "shape": [3, 3, 1, 1], "dtype": "float32"}, {"name": "model_57/tf.nn.convolution_514/convolution/filter", "shape": [3, 3, 1, 1], "dtype": "float32"}, {"name": "model_57/tf.nn.convolution_515/convolution/filter", "shape": [3, 3, 1, 1], "dtype": "float32"}, {"name": "model_57/tf.nn.convolution_516/convolution/filter", "shape": [3, 3, 1, 1], "dtype": "float32"}, {"name": "model_57/tf.nn.convolution_517/convolution/filter", "shape": [3, 3, 1, 1], "dtype": "float32"}, {"name": "model_57/tf.nn.convolution_518/convolution/filter", "shape": [3, 3, 1, 1], "dtype": "float32"}, {"name": "model_57/tf.nn.convolution_519/convolution/filter", "shape": [3, 3, 1, 1], "dtype": "float32"}, {"name": "model_57/tf.nn.convolution_520/convolution/filter", "shape": [3, 3, 1, 1], "dtype": "float32"}, {"name": "model_57/tf.nn.convolution_521/convolution/filter", "shape": [3, 3, 1, 1], "dtype": "float32"}, {"name": "model_57/tf.nn.convolution_522/convolution/filter", "shape": [3, 3, 1, 1], "dtype": "float32"}, {"name": "model_57/tf.nn.convolution_523/convolution/filter", "shape": [3, 3, 1, 1], "dtype": "float32"}, {"name": "model_57/tf.nn.convolution_524/convolution/filter", "shape": [3, 3, 1, 1], "dtype": "float32"}, {"name": "model_57/tf.nn.convolution_525/convolution/filter", "shape": [3, 3, 1, 1], "dtype": "float32"}, {"name": "model_57/tf.nn.convolution_526/convolution/filter", "shape": [3, 3, 1, 1], "dtype": "float32"}, {"name": "model_57/tf.nn.convolution_527/convolution/filter", "shape": [3, 3, 1, 1], "dtype": "float32"}, {"name": "model_57/tf.nn.convolution_528/convolution/filter", "shape": [3, 3, 1, 1], "dtype": "float32"}, {"name": "model_57/tf.nn.convolution_529/convolution/filter", "shape": [3, 3, 1, 1], "dtype": "float32"}, {"name": "model_57/tf.nn.convolution_530/convolution/filter", "shape": [3, 3, 1, 1], "dtype": "float32"}, {"name": "model_57/tf.nn.convolution_531/convolution/filter", "shape": [3, 3, 1, 1], "dtype": "float32"}, {"name": "model_57/tf.nn.convolution_532/convolution/filter", "shape": [3, 3, 1, 1], "dtype": "float32"}, {"name": "model_57/tf.nn.convolution_533/convolution/filter", "shape": [3, 3, 1, 1], "dtype": "float32"}, {"name": "model_57/tf.nn.convolution_534/convolution/filter", "shape": [3, 3, 1, 1], "dtype": "float32"}, {"name": "model_57/tf.nn.convolution_535/convolution/filter", "shape": [3, 3, 1, 1], "dtype": "float32"}, {"name": "model_57/tf.nn.convolution_536/convolution/filter", "shape": [3, 3, 1, 1], "dtype": "float32"}, {"name": "model_57/tf.nn.convolution_537/convolution/filter", "shape": [3, 3, 1, 1], "dtype": "float32"}, {"name": "model_57/tf.nn.convolution_538/convolution/filter", "shape": [3, 3, 1, 1], "dtype": "float32"}, {"name": "model_57/tf.nn.convolution_539/convolution/filter", "shape": [3, 3, 1, 1], "dtype": "float32"}, {"name": "model_57/tf.nn.convolution_540/convolution/filter", "shape": [3, 3, 1, 1], "dtype": "float32"}, {"name": "model_57/tf.nn.convolution_541/convolution/filter", "shape": [3, 3, 1, 1], "dtype": "float32"}, {"name": "model_57/tf.nn.convolution_542/convolution/filter", "shape": [3, 3, 1, 1], "dtype": "float32"}, {"name": "model_57/tf.nn.convolution_543/convolution/filter", "shape": [3, 3, 1, 1], "dtype": "float32"}, {"name": "model_57/tf.nn.convolution_544/convolution/filter", "shape": [3, 3, 1, 1], "dtype": "float32"}, {"name": "model_57/tf.nn.convolution_545/convolution/filter", "shape": [3, 3, 1, 1], "dtype": "float32"}, {"name": "model_57/tf.nn.convolution_546/convolution/filter", "shape": [3, 3, 1, 1], "dtype": "float32"}, {"name": "model_57/tf.nn.convolution_547/convolution/filter", "shape": [3, 3, 1, 1], "dtype": "float32"}, {"name": "model_57/tf.nn.convolution_548/convolution/filter", "shape": [3, 3, 1, 1], "dtype": "float32"}, {"name": "model_57/tf.nn.convolution_549/convolution/filter", "shape": [3, 3, 1, 1], "dtype": "float32"}, {"name": "model_57/tf.nn.convolution_550/convolution/filter", "shape": [3, 3, 1, 1], "dtype": "float32"}, {"name": "model_57/tf.nn.convolution_551/convolution/filter", "shape": [3, 3, 1, 1], "dtype": "float32"}, {"name": "model_57/tf.nn.convolution_552/convolution/filter", "shape": [3, 3, 1, 1], "dtype": "float32"}, {"name": "model_57/tf.nn.convolution_553/convolution/filter", "shape": [3, 3, 1, 1], "dtype": "float32"}, {"name": "model_57/tf.nn.convolution_554/convolution/filter", "shape": [3, 3, 1, 1], "dtype": "float32"}, {"name": "model_57/tf.nn.convolution_555/convolution/filter", "shape": [3, 3, 1, 1], "dtype": "float32"}, {"name": "model_57/tf.nn.convolution_556/convolution/filter", "shape": [3, 3, 1, 1], "dtype": "float32"}, {"name": "model_57/tf.nn.convolution_557/convolution/filter", "shape": [3, 3, 1, 1], "dtype": "float32"}, {"name": "model_57/tf.nn.convolution_558/convolution/filter", "shape": [3, 3, 1, 1], "dtype": "float32"}, {"name": "model_57/tf.nn.convolution_559/convolution/filter", "shape": [3, 3, 1, 1], "dtype": "float32"}, {"name": "model_57/tf.nn.convolution_560/convolution/filter", "shape": [3, 3, 1, 1], "dtype": "float32"}, {"name": "model_57/tf.nn.convolution_561/convolution/filter", "shape": [3, 3, 1, 1], "dtype": "float32"}, {"name": "model_57/tf.nn.convolution_562/convolution/filter", "shape": [3, 3, 1, 1], "dtype": "float32"}, {"name": "model_57/tf.nn.convolution_563/convolution/filter", "shape": [3, 3, 1, 1], "dtype": "float32"}, {"name": "model_57/tf.nn.convolution_564/convolution/filter", "shape": [3, 3, 1, 1], "dtype": "float32"}, {"name": "model_57/tf.nn.convolution_565/convolution/filter", "shape": [3, 3, 1, 1], "dtype": "float32"}, {"name": "model_57/tf.nn.convolution_566/convolution/filter", "shape": [3, 3, 1, 1], "dtype": "float32"}, {"name": "model_57/tf.nn.convolution_567/convolution/filter", "shape": [3, 3, 1, 1], "dtype": "float32"}, {"name": "model_57/tf.nn.convolution_568/convolution/filter", "shape": [3, 3, 1, 1], "dtype": "float32"}, {"name": "model_57/tf.nn.convolution_569/convolution/filter", "shape": [3, 3, 1, 1], "dtype": "float32"}, {"name": "model_57/tf.nn.convolution_570/convolution/filter", "shape": [3, 3, 1, 1], "dtype": "float32"}, {"name": "model_57/tf.nn.convolution_571/convolution/filter", "shape": [3, 3, 1, 1], "dtype": "float32"}, {"name": "model_57/tf.nn.convolution_572/convolution/filter", "shape": [3, 3, 1, 1], "dtype": "float32"}, {"name": "model_57/tf.nn.convolution_573/convolution/filter", "shape": [3, 3, 1, 1], "dtype": "float32"}, {"name": "model_57/tf.nn.convolution_574/convolution/filter", "shape": [3, 3, 1, 1], "dtype": "float32"}, {"name": "model_57/tf.nn.convolution_575/convolution/filter", "shape": [3, 3, 1, 1], "dtype": "float32"}, {"name": "model_57/tf.nn.convolution_576/convolution/filter", "shape": [3, 3, 1, 1], "dtype": "float32"}, {"name": "model_57/tf.nn.convolution_577/convolution/filter", "shape": [3, 3, 1, 1], "dtype": "float32"}, {"name": "model_57/tf.nn.convolution_578/convolution/filter", "shape": [3, 3, 1, 1], "dtype": "float32"}, {"name": "model_57/tf.nn.convolution_579/convolution/filter", "shape": [3, 3, 1, 1], "dtype": "float32"}, {"name": "model_57/tf.nn.convolution_580/convolution/filter", "shape": [3, 3, 1, 1], "dtype": "float32"}, {"name": "model_57/tf.nn.convolution_581/convolution/filter", "shape": [3, 3, 1, 1], "dtype": "float32"}, {"name": "model_57/tf.nn.convolution_582/convolution/filter", "shape": [3, 3, 1, 1], "dtype": "float32"}, {"name": "model_57/tf.nn.convolution_583/convolution/filter", "shape": [3, 3, 1, 1], "dtype": "float32"}, {"name": "model_57/tf.nn.convolution_584/convolution/filter", "shape": [3, 3, 1, 1], "dtype": "float32"}, {"name": "model_57/tf.nn.convolution_585/convolution/filter", "shape": [3, 3, 1, 1], "dtype": "float32"}, {"name": "model_57/tf.nn.convolution_586/convolution/filter", "shape": [3, 3, 1, 1], "dtype": "float32"}, {"name": "model_57/tf.nn.convolution_587/convolution/filter", "shape": [3, 3, 1, 1], "dtype": "float32"}, {"name": "model_57/tf.nn.convolution_588/convolution/filter", "shape": [3, 3, 1, 1], "dtype": "float32"}, {"name": "model_57/tf.nn.convolution_589/convolution/filter", "shape": [3, 3, 1, 1], "dtype": "float32"}, {"name": "model_57/tf.nn.convolution_590/convolution/filter", "shape": [3, 3, 1, 1], "dtype": "float32"}, {"name": "model_57/tf.nn.convolution_591/convolution/filter", "shape": [3, 3, 1, 1], "dtype": "float32"}, {"name": "model_57/tf.nn.convolution_592/convolution/filter", "shape": [3, 3, 1, 1], "dtype": "float32"}, {"name": "model_57/tf.nn.convolution_593/convolution/filter", "shape": [3, 3, 1, 1], "dtype": "float32"}, {"name": "model_57/tf.nn.convolution_594/convolution/filter", "shape": [3, 3, 1, 1], "dtype": "float32"}, {"name": "model_57/tf.nn.convolution_595/convolution/filter", "shape": [3, 3, 1, 1], "dtype": "float32"}, {"name": "model_57/tf.nn.convolution_596/convolution/filter", "shape": [3, 3, 1, 1], "dtype": "float32"}, {"name": "model_57/tf.nn.convolution_597/convolution/filter", "shape": [3, 3, 1, 1], "dtype": "float32"}, {"name": "model_57/tf.nn.convolution_598/convolution/filter", "shape": [3, 3, 1, 1], "dtype": "float32"}, {"name": "model_57/tf.nn.convolution_599/convolution/filter", "shape": [3, 3, 1, 1], "dtype": "float32"}, {"name": "model_57/tf.nn.convolution_600/convolution/filter", "shape": [3, 3, 1, 1], "dtype": "float32"}, {"name": "model_57/tf.nn.convolution_601/convolution/filter", "shape": [3, 3, 1, 1], "dtype": "float32"}, {"name": "model_57/tf.nn.convolution_602/convolution/filter", "shape": [3, 3, 1, 1], "dtype": "float32"}, {"name": "model_57/tf.nn.convolution_603/convolution/filter", "shape": [3, 3, 1, 1], "dtype": "float32"}, {"name": "model_57/tf.nn.convolution_604/convolution/filter", "shape": [3, 3, 1, 1], "dtype": "float32"}, {"name": "model_57/tf.nn.convolution_605/convolution/filter", "shape": [3, 3, 1, 1], "dtype": "float32"}, {"name": "model_57/tf.nn.convolution_606/convolution/filter", "shape": [3, 3, 1, 1], "dtype": "float32"}, {"name": "model_57/tf.nn.convolution_607/convolution/filter", "shape": [3, 3, 1, 1], "dtype": "float32"}, {"name": "model_57/tf.nn.convolution_608/convolution/filter", "shape": [3, 3, 1, 1], "dtype": "float32"}, {"name": "model_57/tf.nn.convolution_609/convolution/filter", "shape": [3, 3, 1, 1], "dtype": "float32"}, {"name": "model_57/tf.nn.convolution_610/convolution/filter", "shape": [3, 3, 1, 1], "dtype": "float32"}, {"name": "model_57/tf.nn.convolution_611/convolution/filter", "shape": [3, 3, 1, 1], "dtype": "float32"}, {"name": "model_57/tf.nn.convolution_612/convolution/filter", "shape": [3, 3, 1, 1], "dtype": "float32"}, {"name": "model_57/tf.nn.convolution_613/convolution/filter", "shape": [3, 3, 1, 1], "dtype": "float32"}, {"name": "model_57/tf.nn.convolution_614/convolution/filter", "shape": [3, 3, 1, 1], "dtype": "float32"}, {"name": "model_57/tf.nn.convolution_615/convolution/filter", "shape": [3, 3, 1, 1], "dtype": "float32"}, {"name": "model_57/tf.nn.convolution_616/convolution/filter", "shape": [3, 3, 1, 1], "dtype": "float32"}, {"name": "model_57/tf.nn.convolution_617/convolution/filter", "shape": [3, 3, 1, 1], "dtype": "float32"}, {"name": "model_57/tf.nn.convolution_618/convolution/filter", "shape": [3, 3, 1, 1], "dtype": "float32"}, {"name": "model_57/tf.nn.convolution_619/convolution/filter", "shape": [3, 3, 1, 1], "dtype": "float32"}, {"name": "model_57/tf.nn.convolution_620/convolution/filter", "shape": [3, 3, 1, 1], "dtype": "float32"}, {"name": "model_57/tf.nn.convolution_621/convolution/filter", "shape": [3, 3, 1, 1], "dtype": "float32"}, {"name": "model_57/tf.nn.convolution_622/convolution/filter", "shape": [3, 3, 1, 1], "dtype": "float32"}, {"name": "model_57/tf.nn.convolution_623/convolution/filter", "shape": [3, 3, 1, 1], "dtype": "float32"}, {"name": "model_57/tf.nn.convolution_624/convolution/filter", "shape": [3, 3, 1, 1], "dtype": "float32"}, {"name": "model_57/tf.nn.convolution_625/convolution/filter", "shape": [3, 3, 1, 1], "dtype": "float32"}, {"name": "model_57/tf.nn.convolution_626/convolution/filter", "shape": [3, 3, 1, 1], "dtype": "float32"}, {"name": "model_57/tf.nn.convolution_627/convolution/filter", "shape": [3, 3, 1, 1], "dtype": "float32"}, {"name": "model_57/tf.nn.convolution_628/convolution/filter", "shape": [3, 3, 1, 1], "dtype": "float32"}, {"name": "model_57/tf.nn.convolution_629/convolution/filter", "shape": [3, 3, 1, 1], "dtype": "float32"}, {"name": "model_57/tf.nn.convolution_630/convolution/filter", "shape": [3, 3, 1, 1], "dtype": "float32"}, {"name": "model_57/tf.nn.convolution_631/convolution/filter", "shape": [3, 3, 1, 1], "dtype": "float32"}, {"name": "model_57/tf.nn.convolution_632/convolution/filter", "shape": [3, 3, 1, 1], "dtype": "float32"}, {"name": "model_57/tf.nn.convolution_633/convolution/filter", "shape": [3, 3, 1, 1], "dtype": "float32"}, {"name": "model_57/tf.nn.convolution_634/convolution/filter", "shape": [3, 3, 1, 1], "dtype": "float32"}, {"name": "model_57/tf.nn.convolution_635/convolution/filter", "shape": [3, 3, 1, 1], "dtype": "float32"}, {"name": "model_57/tf.nn.convolution_636/convolution/filter", "shape": [3, 3, 1, 1], "dtype": "float32"}, {"name": "model_57/tf.split_1/split/split_dim", "shape": [], "dtype": "int32"}, {"name": "model_57/tf.strided_slice_31/ones_like/tensor", "shape": [4], "dtype": "int32"}, {"name": "model_57/tf.strided_slice_31/StridedSlice/end", "shape": [4], "dtype": "int32"}, {"name": "model_57/tf.strided_slice_31/ones_like", "shape": [4], "dtype": "int32"}, {"name": "model_57/tf.nn.convolution_370/convolution/filter", "shape": [1, 1, 256, 128], "dtype": "float32"}, {"name": "model_57/tf.math.add_162/Add/y", "shape": [128], "dtype": "float32"}, {"name": "model_57/tf.nn.convolution_372/convolution/filter", "shape": [3, 3, 128, 128], "dtype": "float32"}, {"name": "model_57/tf.math.add_164/Add/y", "shape": [128], "dtype": "float32"}, {"name": "model_57/tf.nn.convolution_373/convolution/filter", "shape": [3, 3, 128, 128], "dtype": "float32"}, {"name": "model_57/tf.math.add_165/Add/y", "shape": [128], "dtype": "float32"}, {"name": "model_57/tf.nn.convolution_374/convolution/filter", "shape": [3, 3, 128, 128], "dtype": "float32"}, {"name": "model_57/tf.math.add_168/Add/y", "shape": [128], "dtype": "float32"}, {"name": "model_57/tf.nn.convolution_375/convolution/filter", "shape": [3, 3, 128, 128], "dtype": "float32"}, {"name": "model_57/tf.math.add_169/Add/y", "shape": [128], "dtype": "float32"}, {"name": "model_57/tf.strided_slice_29/ones_like/tensor", "shape": [4], "dtype": "int32"}, {"name": "model_57/tf.strided_slice_29/StridedSlice/end", "shape": [4], "dtype": "int32"}, {"name": "model_57/tf.strided_slice_29/ones_like", "shape": [4], "dtype": "int32"}, {"name": "model_57/tf.nn.convolution_360/convolution/filter", "shape": [1, 1, 256, 128], "dtype": "float32"}, {"name": "model_57/tf.math.add_148/Add/y", "shape": [128], "dtype": "float32"}, {"name": "model_57/tf.nn.convolution_362/convolution/filter", "shape": [3, 3, 128, 128], "dtype": "float32"}, {"name": "model_57/tf.math.add_150/Add/y", "shape": [128], "dtype": "float32"}, {"name": "model_57/tf.nn.convolution_363/convolution/filter", "shape": [3, 3, 128, 128], "dtype": "float32"}, {"name": "model_57/tf.math.add_151/Add/y", "shape": [128], "dtype": "float32"}, {"name": "model_57/tf.nn.convolution_364/convolution/filter", "shape": [3, 3, 128, 128], "dtype": "float32"}, {"name": "model_57/tf.math.add_154/Add/y", "shape": [128], "dtype": "float32"}, {"name": "model_57/tf.nn.convolution_365/convolution/filter", "shape": [3, 3, 128, 128], "dtype": "float32"}, {"name": "model_57/tf.math.add_155/Add/y", "shape": [128], "dtype": "float32"}, {"name": "model_57/tf.strided_slice_27/ones_like/tensor", "shape": [4], "dtype": "int32"}, {"name": "model_57/tf.strided_slice_27/StridedSlice/end", "shape": [4], "dtype": "int32"}, {"name": "model_57/tf.strided_slice_27/ones_like", "shape": [4], "dtype": "int32"}, {"name": "model_57/tf.nn.convolution_350/convolution/filter", "shape": [1, 1, 128, 64], "dtype": "float32"}, {"name": "model_57/tf.math.add_134/Add/y", "shape": [64], "dtype": "float32"}, {"name": "model_57/tf.nn.convolution_352/convolution/filter", "shape": [3, 3, 64, 64], "dtype": "float32"}, {"name": "model_57/tf.math.add_136/Add/y", "shape": [64], "dtype": "float32"}, {"name": "model_57/tf.nn.convolution_353/convolution/filter", "shape": [3, 3, 64, 64], "dtype": "float32"}, {"name": "model_57/tf.math.add_137/Add/y", "shape": [64], "dtype": "float32"}, {"name": "model_57/tf.nn.convolution_354/convolution/filter", "shape": [3, 3, 64, 64], "dtype": "float32"}, {"name": "model_57/tf.math.add_140/Add/y", "shape": [64], "dtype": "float32"}, {"name": "model_57/tf.nn.convolution_355/convolution/filter", "shape": [3, 3, 64, 64], "dtype": "float32"}, {"name": "model_57/tf.math.add_141/Add/y", "shape": [64], "dtype": "float32"}, {"name": "model_57/tf.strided_slice_25/ones_like/tensor", "shape": [4], "dtype": "int32"}, {"name": "model_57/tf.strided_slice_25/StridedSlice/end", "shape": [4], "dtype": "int32"}, {"name": "model_57/tf.strided_slice_25/ones_like", "shape": [4], "dtype": "int32"}, {"name": "model_57/tf.nn.convolution_340/convolution/filter", "shape": [1, 1, 64, 32], "dtype": "float32"}, {"name": "model_57/tf.math.add_120/Add/y", "shape": [32], "dtype": "float32"}, {"name": "model_57/tf.nn.convolution_342/convolution/filter", "shape": [3, 3, 32, 32], "dtype": "float32"}, {"name": "model_57/tf.math.add_122/Add/y", "shape": [32], "dtype": "float32"}, {"name": "model_57/tf.nn.convolution_343/convolution/filter", "shape": [3, 3, 32, 32], "dtype": "float32"}, {"name": "model_57/tf.math.add_123/Add/y", "shape": [32], "dtype": "float32"}, {"name": "model_57/tf.nn.convolution_344/convolution/filter", "shape": [3, 3, 32, 32], "dtype": "float32"}, {"name": "model_57/tf.math.add_126/Add/y", "shape": [32], "dtype": "float32"}, {"name": "model_57/tf.nn.convolution_345/convolution/filter", "shape": [3, 3, 32, 32], "dtype": "float32"}, {"name": "model_57/tf.math.add_127/Add/y", "shape": [32], "dtype": "float32"}, {"name": "model_57/tf.compat.v1.pad_7/Pad/paddings", "shape": [4, 2], "dtype": "int32"}, {"name": "model_57/tf.nn.convolution_337/convolution/filter", "shape": [3, 3, 3, 64], "dtype": "float32"}, {"name": "model_57/tf.math.add_117/Add/y", "shape": [64], "dtype": "float32"}, {"name": "model_57/tf.compat.v1.pad_8/Pad/paddings", "shape": [4, 2], "dtype": "int32"}, {"name": "model_57/tf.nn.convolution_338/convolution/filter", "shape": [3, 3, 64, 128], "dtype": "float32"}, {"name": "model_57/tf.math.add_118/Add/y", "shape": [128], "dtype": "float32"}, {"name": "model_57/tf.nn.convolution_339/convolution/filter", "shape": [1, 1, 128, 128], "dtype": "float32"}, {"name": "model_57/tf.math.add_119/Add/y", "shape": [128], "dtype": "float32"}, {"name": "model_57/tf.strided_slice_26/ones_like/tensor", "shape": [4], "dtype": "int32"}, {"name": "model_57/tf.strided_slice_26/StridedSlice/end", "shape": [4], "dtype": "int32"}, {"name": "model_57/tf.strided_slice_26/ones_like", "shape": [4], "dtype": "int32"}, {"name": "model_57/tf.nn.convolution_341/convolution/filter", "shape": [1, 1, 64, 32], "dtype": "float32"}, {"name": "model_57/tf.math.add_121/Add/y", "shape": [32], "dtype": "float32"}, {"name": "model_57/tf.concat_29/concat/axis", "shape": [], "dtype": "int32"}, {"name": "model_57/tf.nn.convolution_346/convolution/filter", "shape": [1, 1, 64, 64], "dtype": "float32"}, {"name": "model_57/tf.math.add_130/Add/y", "shape": [64], "dtype": "float32"}, {"name": "model_57/tf.concat_30/concat/axis", "shape": [], "dtype": "int32"}, {"name": "model_57/tf.nn.convolution_347/convolution/filter", "shape": [1, 1, 192, 256], "dtype": "float32"}, {"name": "model_57/tf.math.add_131/Add/y", "shape": [256], "dtype": "float32"}, {"name": "model_57/tf.compat.v1.pad_9/Pad/paddings", "shape": [4, 2], "dtype": "int32"}, {"name": "model_57/tf.nn.convolution_348/convolution/filter", "shape": [3, 3, 256, 256], "dtype": "float32"}, {"name": "model_57/tf.math.add_132/Add/y", "shape": [256], "dtype": "float32"}, {"name": "model_57/tf.nn.convolution_349/convolution/filter", "shape": [1, 1, 256, 256], "dtype": "float32"}, {"name": "model_57/tf.math.add_133/Add/y", "shape": [256], "dtype": "float32"}, {"name": "model_57/tf.strided_slice_28/ones_like/tensor", "shape": [4], "dtype": "int32"}, {"name": "model_57/tf.strided_slice_28/StridedSlice/end", "shape": [4], "dtype": "int32"}, {"name": "model_57/tf.strided_slice_28/ones_like", "shape": [4], "dtype": "int32"}, {"name": "model_57/tf.nn.convolution_351/convolution/filter", "shape": [1, 1, 128, 64], "dtype": "float32"}, {"name": "model_57/tf.math.add_135/Add/y", "shape": [64], "dtype": "float32"}, {"name": "model_57/tf.concat_31/concat/axis", "shape": [], "dtype": "int32"}, {"name": "model_57/tf.nn.convolution_356/convolution/filter", "shape": [1, 1, 128, 128], "dtype": "float32"}, {"name": "model_57/tf.math.add_144/Add/y", "shape": [128], "dtype": "float32"}, {"name": "model_57/tf.concat_32/concat/axis", "shape": [], "dtype": "int32"}, {"name": "model_57/tf.nn.convolution_357/convolution/filter", "shape": [1, 1, 384, 512], "dtype": "float32"}, {"name": "model_57/tf.math.add_145/Add/y", "shape": [512], "dtype": "float32"}, {"name": "model_57/tf.compat.v1.pad_10/Pad/paddings", "shape": [4, 2], "dtype": "int32"}, {"name": "model_57/tf.nn.convolution_358/convolution/filter", "shape": [3, 3, 512, 512], "dtype": "float32"}, {"name": "model_57/tf.math.add_146/Add/y", "shape": [512], "dtype": "float32"}, {"name": "model_57/tf.nn.convolution_359/convolution/filter", "shape": [1, 1, 512, 512], "dtype": "float32"}, {"name": "model_57/tf.math.add_147/Add/y", "shape": [512], "dtype": "float32"}, {"name": "model_57/tf.strided_slice_30/ones_like/tensor", "shape": [4], "dtype": "int32"}, {"name": "model_57/tf.strided_slice_30/StridedSlice/end", "shape": [4], "dtype": "int32"}, {"name": "model_57/tf.strided_slice_30/ones_like", "shape": [4], "dtype": "int32"}, {"name": "model_57/tf.nn.convolution_361/convolution/filter", "shape": [1, 1, 256, 128], "dtype": "float32"}, {"name": "model_57/tf.math.add_149/Add/y", "shape": [128], "dtype": "float32"}, {"name": "model_57/tf.concat_33/concat/axis", "shape": [], "dtype": "int32"}, {"name": "model_57/tf.nn.convolution_366/convolution/filter", "shape": [1, 1, 256, 256], "dtype": "float32"}, {"name": "model_57/tf.math.add_158/Add/y", "shape": [256], "dtype": "float32"}, {"name": "model_57/tf.concat_34/concat/axis", "shape": [], "dtype": "int32"}, {"name": "model_57/tf.nn.convolution_367/convolution/filter", "shape": [1, 1, 768, 512], "dtype": "float32"}, {"name": "model_57/tf.math.add_159/Add/y", "shape": [512], "dtype": "float32"}, {"name": "model_57/tf.compat.v1.pad_11/Pad/paddings", "shape": [4, 2], "dtype": "int32"}, {"name": "model_57/tf.nn.convolution_368/convolution/filter", "shape": [3, 3, 512, 512], "dtype": "float32"}, {"name": "model_57/tf.math.add_160/Add/y", "shape": [512], "dtype": "float32"}, {"name": "model_57/tf.nn.convolution_369/convolution/filter", "shape": [1, 1, 512, 512], "dtype": "float32"}, {"name": "model_57/tf.math.add_161/Add/y", "shape": [512], "dtype": "float32"}, {"name": "model_57/tf.strided_slice_32/ones_like/tensor", "shape": [4], "dtype": "int32"}, {"name": "model_57/tf.strided_slice_32/StridedSlice/end", "shape": [4], "dtype": "int32"}, {"name": "model_57/tf.strided_slice_32/ones_like", "shape": [4], "dtype": "int32"}, {"name": "model_57/tf.nn.convolution_371/convolution/filter", "shape": [1, 1, 256, 128], "dtype": "float32"}, {"name": "model_57/tf.math.add_163/Add/y", "shape": [128], "dtype": "float32"}, {"name": "model_57/tf.concat_35/concat/axis", "shape": [], "dtype": "int32"}, {"name": "model_57/tf.nn.convolution_376/convolution/filter", "shape": [1, 1, 256, 256], "dtype": "float32"}, {"name": "model_57/tf.math.add_172/Add/y", "shape": [256], "dtype": "float32"}, {"name": "model_57/tf.concat_36/concat/axis", "shape": [], "dtype": "int32"}, {"name": "model_57/tf.nn.convolution_377/convolution/filter", "shape": [1, 1, 768, 512], "dtype": "float32"}, {"name": "model_57/tf.math.add_173/Add/y", "shape": [512], "dtype": "float32"}, {"name": "model_57/tf.nn.convolution_378/convolution/filter", "shape": [1, 1, 512, 256], "dtype": "float32"}, {"name": "model_57/tf.math.add_174/Add/y", "shape": [256], "dtype": "float32"}, {"name": "model_57/tf.concat_37/concat/axis", "shape": [], "dtype": "int32"}, {"name": "model_57/tf.nn.convolution_379/convolution/filter", "shape": [1, 1, 1024, 512], "dtype": "float32"}, {"name": "model_57/tf.math.add_175/Add/y", "shape": [512], "dtype": "float32"}, {"name": "model_57/tf.nn.convolution_380/convolution/filter", "shape": [1, 1, 512, 512], "dtype": "float32"}, {"name": "model_57/tf.math.add_176/Add/y", "shape": [512], "dtype": "float32"}, {"name": "model_57/tf.strided_slice_34/StridedSlice/begin", "shape": [4], "dtype": "int32"}, {"name": "model_57/tf.strided_slice_34/StridedSlice/end", "shape": [4], "dtype": "int32"}, {"name": "model_57/tf.strided_slice_34/ones_like", "shape": [4], "dtype": "int32"}, {"name": "model_57/tf.nn.convolution_381/convolution/filter", "shape": [1, 1, 256, 512], "dtype": "float32"}, {"name": "model_57/tf.math.add_177/Add/y", "shape": [512], "dtype": "float32"}, {"name": "model_57/tf.compat.v1.transpose_191/transpose/perm", "shape": [4], "dtype": "int32"}, {"name": "model_57/tf.reshape_26/Reshape/shape", "shape": [4], "dtype": "int32"}, {"name": "model_57/tf.strided_slice_37/StridedSlice/begin", "shape": [4], "dtype": "int32"}, {"name": "model_57/tf.strided_slice_37/StridedSlice/end", "shape": [4], "dtype": "int32"}, {"name": "model_57/tf.strided_slice_37/ones_like", "shape": [4], "dtype": "int32"}, {"name": "model_57/tf.reshape_29/Reshape/shape", "shape": [4], "dtype": "int32"}, {"name": "model_57/tf.compat.v1.transpose_199/transpose/perm", "shape": [4], "dtype": "int32"}, {"name": "model_57/tf.nn.convolution_637/convolution/filter", "shape": [3, 3, 1, 1], "dtype": "float32"}, {"name": "model_57/tf.concat_38/concat/axis", "shape": [], "dtype": "int32"}, {"name": "model_57/tf.nn.convolution_638/convolution/filter", "shape": [1, 1, 256, 256], "dtype": "float32"}, {"name": "model_57/tf.math.add_181/Add/y", "shape": [256], "dtype": "float32"}, {"name": "model_57/tf.nn.convolution_639/convolution/filter", "shape": [1, 1, 256, 512], "dtype": "float32"}, {"name": "model_57/tf.math.add_184/Add/y", "shape": [512], "dtype": "float32"}, {"name": "model_57/tf.nn.convolution_640/convolution/filter", "shape": [1, 1, 512, 256], "dtype": "float32"}, {"name": "model_57/tf.concat_39/concat/axis", "shape": [], "dtype": "int32"}, {"name": "model_57/tf.nn.convolution_641/convolution/filter", "shape": [1, 1, 512, 512], "dtype": "float32"}, {"name": "model_57/tf.math.add_188/Add/y", "shape": [512], "dtype": "float32"}, {"name": "model_57/tf.concat_52/concat/axis", "shape": [], "dtype": "int32"}, {"name": "model_57/tf.nn.convolution_680/convolution/filter", "shape": [1, 1, 1024, 512], "dtype": "float32"}, {"name": "model_57/tf.math.add_242/Add/y", "shape": [512], "dtype": "float32"}, {"name": "model_57/tf.strided_slice_45/ones_like/tensor", "shape": [4], "dtype": "int32"}, {"name": "model_57/tf.strided_slice_45/StridedSlice/end", "shape": [4], "dtype": "int32"}, {"name": "model_57/tf.strided_slice_45/ones_like", "shape": [4], "dtype": "int32"}, {"name": "model_57/tf.nn.convolution_683/convolution/filter", "shape": [1, 1, 256, 128], "dtype": "float32"}, {"name": "model_57/tf.math.add_246/Add/y", "shape": [128], "dtype": "float32"}, {"name": "model_57/tf.concat_54/concat/axis", "shape": [], "dtype": "int32"}, {"name": "model_57/tf.nn.convolution_690/convolution/filter", "shape": [1, 1, 256, 256], "dtype": "float32"}, {"name": "model_57/tf.math.add_257/Add/y", "shape": [256], "dtype": "float32"}, {"name": "model_57/tf.concat_55/concat/axis", "shape": [], "dtype": "int32"}, {"name": "model_57/tf.nn.convolution_691/convolution/filter", "shape": [1, 1, 768, 512], "dtype": "float32"}, {"name": "model_57/tf.math.add_258/Add/y", "shape": [512], "dtype": "float32"}, {"name": "model_57/tf.compat.v1.nn.depthwise_conv2d_10/depthwise/filter_in", "shape": [3, 3, 512, 1], "dtype": "float32"}, {"name": "model_57/tf.math.add_260/Add/y", "shape": [512], "dtype": "float32"}, {"name": "model_57/tf.nn.convolution_694/convolution/filter", "shape": [1, 1, 512, 256], "dtype": "float32"}, {"name": "model_57/tf.math.add_262/Add/y", "shape": [256], "dtype": "float32"}, {"name": "model_57/tf.compat.v1.nn.depthwise_conv2d_11/depthwise/filter_in", "shape": [3, 3, 256, 1], "dtype": "float32"}, {"name": "model_57/tf.math.add_264/Add/y", "shape": [256], "dtype": "float32"}, {"name": "model_57/tf.nn.convolution_696/convolution/filter", "shape": [1, 1, 256, 256], "dtype": "float32"}, {"name": "model_57/tf.math.add_265/Add/y", "shape": [256], "dtype": "float32"}, {"name": "model_57/tf.nn.convolution_697/convolution/filter", "shape": [1, 1, 256, 80], "dtype": "float32"}, {"name": "model_57/tf.math.add_266/Add/y", "shape": [80], "dtype": "float32"}, {"name": "model_57/tf.concat_56/concat/axis", "shape": [], "dtype": "int32"}, {"name": "model_57/tf.compat.v1.transpose_288/transpose/perm", "shape": [4], "dtype": "int32"}, {"name": "model_57/tf.reshape_41/Reshape/shape", "shape": [3], "dtype": "int32"}, {"name": "model_57/tf.concat_57/concat/axis", "shape": [], "dtype": "int32"}, {"name": "model_57/tf.strided_slice_47/StridedSlice/begin", "shape": [3], "dtype": "int32"}, {"name": "model_57/tf.strided_slice_47/StridedSlice/end", "shape": [3], "dtype": "int32"}, {"name": "model_57/tf.strided_slice_47/ones_like", "shape": [3], "dtype": "int32"}, {"name": "model_57/output0/concat/axis", "shape": [], "dtype": "int32"}]}]}